saved_model/C_220812172805_dsets0_60.0Hz_Raw_UNet_MSE_Epoch1357.pt (torch, 601055 bytes, 21 tensors)

weight f4 [9, 1, 3, 3]
-0.018493248 -0.008506885 -0.052876916 0.0032004244 0.011124837 0.004335664 -0.01245702 -0.006567738
-0.021490838 -0.007262879 -0.033421006 0.045310095 0.10469424 -0.002373096 0.09482666 0.023639053
-0.0025411868 0.024337819 0.0287064 0.02120921 -0.009882636 -0.07742971 -0.049722116 -0.060273822
0.0013937971 -0.00014813142 0.037938964 0.013755565 -0.0015589613 -0.016745599 0.043016106 -0.026572475
-0.010220222 -0.0065651885 -0.018172096 -0.01611874 -0.014813313 -0.0010077097 0.010869537 0.07062805
-0.018030273 0.019858018 0.03269823 0.014247848 -0.0036113604 0.020504449 -0.029243043 -0.015107696
0.031092102 -0.016277876 0.053514414 -0.0016598181 0.017942458 -0.022245295 0.0022329192 0.009725546
-0.010998747 0.009515437 -0.009998682 0.02765953 0.005673714 0.0024206764 0.009459413 -0.021645661
-0.000668921 -0.019468736 0.0023658809 0.008119394 -0.03874001 0.002319844 0.013703305 -0.008247825
-0.013476299 -0.010808886 0.013796966 -0.05445834 0.025655048 0.0007948531 0.0071947733 -0.010085162
-0.0062104934
00000000: 277f 97bc 7660 0bbc 7795 58bd 36be 513b
00000010: f344 363c 3012 8e3b 8718 4cbc 2e36 d7bb
00000020: 8e0d b0bc 72fd edbb 77e4 08bd 1497 393d
00000030: ef69 d63d f285 1bbb 7b34 c23d b0a6 c13c
00000040: 0a8a 26bb 1b60 c73c af29 eb3c f0be ad3c
00000050: c8ea 21bc 7893 9ebd 6ba9 4bbd afe1 76bd
00000060: 12b0 b63a ba53 1bb9 e365 1b3d 055f 613c
00000070: 1056 ccba 112e 89bc a831 303d 85ae d9bc
00000080: b872 27bc cb20 d7bb a6dd 94bc 730b 84bc
00000090: 8ab3 72bc 2015 84ba 2416 323c 70a5 903d
000000a0: 39b4 93bc 48ad a23c 94ee 053d ce6f 693c
000000b0: 93ac 6cbb f2f8 a73c 1b8f efbc 4586 77bc
000000c0: ddb4 fe3c 2e59 85bc ee31 5b3d 418e d9ba
000000d0: 10fc 923c c43b b6bc 2b56 123b e657 1f3c
000000e0: 1734 34bc a3e6 1b3c 83d1 23bc 3d96 e23c
000000f0: 90ea b93b 36a4 1e3b a7fb 1a3c 3e52 b1bc
00000100: 875a 2fba e67c 9fbc e50c 1b3b 3507 053c
00000110: d8ad 1ebd 8608 183b d483 603c e321 07bc
00000120: b2cb 5cbc c117 31bc ab0c 623c b50f 5fbd
00000130: 892a d23c b05d 503a 22c2 eb3b 3c3c 25bc
00000140: 6581 cbbb

weight f4 [9, 9, 3, 3]
0.0036165165 -0.011045256 0.018476266 -0.010479202 -0.015818441 0.038094927 0.0025931185 -0.0188128
0.016218191 0.017641027 -0.020265205 -0.007267265 0.10294311 0.061604995 -0.028476013 -0.0026932645
-0.006225378 0.03583275 -0.01695741 0.03296755 0.007951271 -0.055945236 0.026602786 -0.011420586
-0.0055508837 -0.015519281 0.020172384 -0.010631924 0.014232697 0.010771659 0.039889578 -0.015366119
0.01533678 -0.01123228 0.060537916 -0.0013425776 -0.007880362 -0.0022501873 0.039169658 0.08533589
0.008305786 0.027003612 0.001222688 -0.0058318856 0.045501765 0.0021396414 -0.0001989896 0.008292092
-0.0051503703 -0.0019122009 0.0071490705 0.0049190726 -0.037729993 0.051085237 0.02074257 -0.03745472
-0.017550237 -0.026394835 -0.009571682 -0.036719173 -0.015282509 0.0142649645 0.010134326 0.0074736336
0.04135992 -0.026140751 -0.06307449 -0.047001794 -0.03748625 -0.011235443 -0.027988123 0.011973906
-0.0005759005 0.017073138 -0.027037011 -0.026046304 0.067205474 -0.0640996 0.004255781 -0.0056246547
-0.018415228 0.0062695537 0.0026821126 0.014596194 -0.04138728 -0.052612867 -0.082296684 0.009707433
0.005838659 0.019513916 -0.005563487 -0.011151548 0.010515934 0.050856158 0.06496938 0.0074076625
-0.021059513 0.0075850366 -0.012483427 -0.003954203 0.010024421 -0.005881501 0.014249627 -0.017374454
-0.012762869 0.004442529 0.018864317 -0.0055734506 -0.01740243 -0.017199328 -0.030310856 -0.012899788
-0.023983931 -0.013326363 0.024686817 -0.030107474 0.012635743 -0.028546285 0.0036357425 0.010893418
0.027669799 -0.00089163124 0.019740535 0.035636716 0.0046409345 0.0027371924 0.025402103 -0.008085062
0.010234532 0.037139695 -0.021294296 0.0039884145 -0.028511407 0.0154845305 0.0012073643 -0.00841019
0.025993831 0.017725954 -0.029338596 0.02269315 -0.02540182 0.028778238 0.047384083 0.020339644
0.021507664 -0.024960272 -0.015385647 -0.020178895 -0.06908177 -0.03608763 -4.330414e-05 -0.038101774
-0.013753068 -0.01019877 -0.01727456 0.0050974074 -0.055338386 -0.0577012 -0.062246535 -0.010824175
-0.011897838 0.0049544936 -0.03797255 0.041907243 -0.009492118 -0.08115437 -0.05165519 -0.07110407
0.015168945 -0.003856021 -0.028577212 0.02644129 0.00019762725 0.022682099 0.06835097 0.004089165
0.11046504 -0.012342324 0.00079302123 0.018039988 0.0043274383 0.01024291 0.027765194 -0.016684847
-0.0018667367 0.014606633 -0.01058171 0.006448761 0.00092152494 -0.0018637911 -0.00904712 0.014295599
-0.007598943 0.011350876 0.007809137 -0.01570647 -0.009351515 0.009544885 0.021663448 0.015197249
0.011866762 0.029304693 -0.028998373 0.04855944 0.0100580165 0.0015500614 -0.025054969 -0.015194921
0.0045787306 0.022798872 0.013513787 0.0076015275 0.017519072 -0.03304539 -0.038432214 -0.010039515
0.024450786 0.013693354 0.008171026 0.013633606 -0.049429335 0.01597874 -0.016618611 -0.0012614506
0.019408505 -0.0029261368 0.017495882 -0.0015599517 -0.079230346 0.04380853 -0.037146628 -0.027341612
-0.020490699 -0.013986827 -0.012861341 -0.022248492 -0.036268037 -0.027048968 -0.021968117 -0.014000592
0.0097988155 0.027694546 -0.00941709 0.025079906 -0.013550707 0.008722037 -0.01299169 0.001732572
-0.02380094 -0.0019650206 0.004016138 -0.022813154 -0.019084737 0.0027498978 -0.03563284 0.0019776665
00000000: 1403 6d3b 29f7 34bc 8a5b 973c f5b0 2bbc
00000010: ad95 81bc 6d09 1c3d 4ff1 293b 4d1d 9abc
00000020: 03dc 843c ea83 903c 3703 a6bc 3d22 eebb
00000030: d6d3 d23d 8555 7c3d 8746 e9bc 7b81 30bb
00000040: 41fe cbbb 5dc5 123d 44ea 8abc fb08 073d
00000050: 0c46 023c d526 65bd 16ee d93c 691d 3bbc
00000060: 30e4 b5bb 9544 7ebc 8e40 a53c 8531 2ebc
00000070: 4230 693c 9d7b 303c 4163 233d 2dc2 7bbc
00000080: 1e47 7b3c 9907 38bc 9bf6 773d 6ef9 afba
00000090: a21c 01bc e177 13bb 5d70 203d 95c4 ae3d
000000a0: fe14 083c ae36 dd3c 9a42 a03a 6719 bfbb
000000b0: 0f60 3a3d 3a39 0c3b dda7 50b9 8edb 073c
000000c0: 70c4 a8bb d1a2 faba c042 ea3b 2c30 a13b
000000d0: c48a 1abd c13e 513d 52ec a93c 1f6a 19bd
000000e0: 84c5 8fbc fb39 d8bc 8bd2 1cbc d866 16bd
000000f0: 7d63 7abc 99b7 693c 720a 263c 62e5 f43b
00000100: 0569 293d 2125 d6bc 332d 81bd f484 40bd
00000110: 2f8b 19bd dd14 38bc 5947 e5bc 342e 443c
00000120: 07f8 16ba f7dc 8b3c b97c ddbc 0f5f d5bc
00000130: 06a3 893d a746 83bd 1474 8b3b 064f b8bb
00000140: 88db 96bc d470 cd3b 62c6 2f3b e024 6f3c
00000150: b585 29bd 9780 57bd 2a8b a8bd ed0b 1f3c
00000160: 3952 bf3b a6db 9f3c e94d b6bb fbb4 36bc
00000170: 064b 2c3c 8c4e 503d ab0e 853d fabb f23b
00000180: 0085 acbc e68b f83b 4a87 4cbc 4292 81bb
00000190: 783d 243c 9bb9 c0bb 4477 693c df54 8ebc
000001a0: 5a1b 51bc a292 913b 5789 9a3c 7ea1 b6bb
000001b0: 8a8f 8ebc 9be5 8cbc 794e f8bc a259 53bc
000001c0: f379 c4bc d156 5abc 023c ca3c f3a3 f6bc
000001d0: 2606 4f3c e6d9 e9bc a345 6e3b 4f7a 323c
000001e0: c6ab e23c 5cbc 69ba e7b6 a13c cef7 113d
000001f0: fb12 983b 7862 333b 1218 d03c 3577 04bc
00000200: bdae 273c cb1f 183d 6071 aebc 3fb1 823b
00000210: c190 e9bc d4b2 7d3c 6c40 9e3a e5ca 09bc
00000220: 04f1 d43c 0536 913c 7f57 f0bc fce6 b93c
00000230: 7a17 d0bc 57c0 eb3c d015 423d 539f a63c
00000240: d730 b03c 7c79 ccbc 1514 7cbc 364e a5bc
00000250: be7a 8dbd 9fd0 13bd 77a1 35b8 9b10 1cbd
00000260: 8c54 61bc be18 27bc 6183 8dbc 2708 a73b
00000270: 81aa 62bd 1858 6cbd 39f6 7ebd e157 31bc
00000280: 26ef 42bc 4e59 a23b 1b89 1bbd eea6 2b3d
00000290: d484 1bbc 4334 a6bd 6494 53bd 039f 91bd
000002a0: 2b87 783c 4cb5 7cbb c21a eabc 679b d83c
000002b0: 293a 4f39 cfcf b93c 98fb 8b3d 67fe 853b
000002c0: 7f3b e23d 7537 4abc c1e2 4f3a 99c8 933c
000002d0: 2fcd 8d3b e1d1 273c d573 e33c a9ae 88bc
000002e0: 4aad f4ba a950 6f3c e95e 2dbc 2150 d33b
000002f0: 7e92 713a 744a f4ba 5f3a 14bc 1738 6a3c
00000300: 8e00 f9bb 06f9 393c cae3 ff3b dbaa 80bc
00000310: 1937 19bc 2662 1c3c 8b77 b13c e2fd 783c
00000320: cf6c 423c 6510 f03c ff8d edbc 43e6 463d
00000330: 61ca 243c 6e2b cb3a 1440 cdbc 1ef4 78bc
00000340: 2d09 963b b3c4 ba3c ee68 5d3c 3c16 f93b
00000350: 2884 8f3c 9a5a 07bd 196b 1dbd c77c 24bc
00000360: 044d c83c 175a 603c c4df 053c 7d5f 5f3c
00000370: 6a76 4abd d9e5 823c c123 88bc 4257 a5ba
00000380: 96fe 9e3c 6ec4 3fbb 8653 8f3c 4b77 ccba
00000390: 8543 a2bd 9370 333d 1027 18bd 84fb dfbc
000003a0: 1cdc a7bc 0129 65bc 60b8 52bc 7842 b6bc
000003b0: cb8d 14bd cc95 ddbc 7bf6 b3bc bd62 65bc
000003c0: 368b 203c acdf e23c 234a 1abc 6074 cd3c
000003d0: c903 5ebc e0e6 0e3c 19db 54bc 7817 e33a
000003e0: 30fa c2bc 93c7 00bb cf99 833b a7e2 babc
000003f0: 9857 9cbc a137 343b bef3 11bd bd9b 013b

weight f4 [18, 9, 3, 3]
0.05088194 -0.014326978 -0.0098673785 -0.012269957 0.0073485533 -0.00011814142 0.018045174 0.016198594
-0.013767577 0.0027448877 0.020754788 0.0018509118 -0.01457467 0.00034858813 0.058012374 -0.03632753
-0.005437616 0.0056225252 -0.020797137 0.015530528 0.017628431 0.008204576 -0.00847339 0.011393725
0.026536662 -0.025231468 0.019001855 -0.013115419 0.01819551 -0.012579847 0.030950408 0.0880115
0.07743601 -0.0061828266 -0.0041100155 0.04112449 -0.0009806349 -0.012721344 -0.01071838 -0.048796296
-0.07372366 0.00083418394 0.021098182 0.0071513485 0.032756686 -0.004620571 0.015765747 -0.00161383
-0.0067638946 0.0366358 0.020372316 -0.009889866 -0.02327491 0.0314795 0.014231922 0.012207228
0.025703363 -0.05743087 0.02201977 -0.015157543 0.02582443 0.032056727 0.0026646426 0.021406075
-0.022322036 -0.016791252 -0.06389627 -0.072287835 -0.026637506 -0.015382637 0.0031032127 -0.017564086
-0.009468398 0.019380659 -0.03996941 0.012981928 0.05772576 0.031314053 -0.025174474 -0.016365297
0.036007147 -0.015823772 0.003996871 0.033880457 -0.052435827 0.0044045835 0.033492245 -0.025599236
0.023153367 -0.039396387 0.04141597 -0.022451404 -0.0020910164 -0.04337975 0.00044491707 0.007841804
0.004860929 0.03450334 -0.03498656 -0.03637336 0.012643375 0.014135055 -0.01487635 -0.0018052282
0.017871613 -0.03130173 -0.0002547511 -0.03699329 0.009991394 -0.0027961582 0.0050895554 -0.016949752
0.01315299 0.0632438 -0.0027806854 0.03549662 0.0146114025 -0.004436526 -0.0067731696 -0.017061496
-0.031263392 -0.0032308635 0.06494089 0.030758334 0.037279654 -0.003592895 0.027609149 -0.006061821
0.01618647 -0.0067696213 0.03199398 0.07867775 0.035985854 -0.009190483 0.013719893 -0.0442906
-0.024643991 0.030353937 0.014507082 0.03888122 0.029869143 0.008262212 0.022696009 0.018637286
0.0017511704 0.02100657 -0.050337423 -0.046669975 -0.02398854 -0.018006468 0.0021947953 0.034633726
-0.010924834 -0.00775711 0.004491554 -0.012171303 0.048134334 -0.010744531 0.019580487 -0.024522709
-0.0055055986 -0.008501682 -0.012653424 0.023818387 -0.0066217864 0.04449481 0.010409353 0.038610734
-0.0024149434 0.025245015 0.024923047 0.035506375 0.006670235 -0.010933324 -0.034449767 -0.0029203058
0.016923867 0.03864901 -0.023557393 -0.024129594 0.006939237 -0.007926812 -0.033861913 -0.005209312
-0.024493564 -0.00068955385 -0.010806326 -0.003527512 -0.013641675 0.0034066604 -0.014253348 -0.004631049
-0.12253801 -0.0046038274 -0.014968663 -0.012110812 0.009414114 0.043435607 0.009678121 -0.00351005
-0.0046414686 0.06277643 0.005178665 -0.01346023 0.018573666 -0.007228582 0.006370003 0.014042433
-3.2417967e-05 0.008664081 -0.012590357 0.044205826 0.010786533 -0.012080156 -0.014885547 0.0172341
0.004102471 -0.021603288 0.019414522 0.030633662 0.031205555 0.0031624848 0.0038115971 -0.004982846
0.01620602 -0.021407247 -0.00463669 -0.0023249977 0.12668139 -0.00422844 0.021641068 0.012445356
0.016499974 -0.023022203 0.008439015 -8.215444e-05 0.0064204177 -0.04955919 -0.0064865197 -0.0013810741
0.020313641 0.038823534 -0.013792394 -0.0005236819 -0.007734131 -0.011032307 -0.038388412 0.039538987
0.025435584 -0.008084622 -0.0052857148 -0.0214058 -0.002013736 0.006656302 0.004292566 0.00037071225
00000000: 9569 503d b3bb 6abc c9aa 21bc ee07 49bc
00000010: 22cc f03b b1c2 f7b8 79d3 933c eab2 843c
00000020: 6791 61bc 93e3 333b f205 aa3c 4b9a f23a
00000030: 99ca 6ebc b5c2 b639 629e 6d3d 2dcc 14bd
00000040: 072e b2bb 293d b83b c25e aabc c173 7e3c
00000050: 8069 903c 7c6c 063c f9d3 0abc bfac 3a3c
00000060: 6a63 d93c 39b2 cebc c7a9 9b3c 0ee2 56bc
00000070: c00e 953c b41b 4ebc b68b fd3c 603f b43d
00000080: c596 9e3d 4f99 cabb 4fad 86bb 2772 283d
00000090: a688 80ba 2f6d 50bc 259c 2fbc a0de 47bd
000000a0: 6efc 96bd 23ad 5a3a 18d6 ac3c dc55 ea3b
000000b0: e02b 063d 2968 97bb 2b27 813c 2687 d3ba
000000c0: a9a3 ddbb 6c0f 163d d8e3 a63c 1b09 22bc
000000d0: 06ab bebc a6f0 003d 022d 693c d300 483c
000000e0: dc8f d23c a23c 6bbd ce62 b43c 5857 78bc
000000f0: c18d d33c ea4d 033d 49a1 2e3b cb5b af3c
00000100: b4dc b6bc cf8d 89bc 0cdc 82bd a50b 94bd
00000110: e636 dabc 7507 7cbc 455f 4b3b 8fe2 8fbc
00000120: 5721 1bbc 30c4 9e3c f7b6 23bd 27b2 543c
00000130: d971 6c3d 2a43 003d b33a cebc 8410 86bc
00000140: 3b7c 133d dba0 81bc 2ff8 823b 3cc6 0a3d
00000150: f3c6 56bd 5354 903b 2a2f 093d 7db5 d1bc
00000160: 21ac bd3c 1b5e 21bd cba3 293d 02ec b7bc
00000170: 6f09 09bb f7ae 31bd c243 e939 e97a 003c
00000180: 6e48 9f3b 6053 0d3d 114e 0fbd 3bfc 14bd
00000190: 2926 4f3c b896 673c efbb 73bc 689d ecba
000001a0: 7d67 923c 3e36 00bd 1d90 85b9 4786 17bd
000001b0: f2b2 233c c03f 37bb 49c6 a63b 35da 8abc
000001c0: a37f 573c f785 813d 293c 36bb e764 113d
000001d0: aa64 6f3c 4760 91bb 77f1 ddbb 8dc4 8bbc
000001e0: 0b0e 00bd e5bc 53bb bbff 843d e7f8 fb3c
000001f0: 8db2 183d c776 6bbb 952c e23c 3da2 c6bb
00000200: 7d99 843c b3d3 ddbb 1f0c 033d cd21 a13d
00000210: e765 133d ae93 16bc 67c9 603c 0f6a 35bd
00000220: 32e2 c9bc d2a8 f83c 1daf 6d3c ea41 1f3d
00000230: 22b0 f43c 3b5e 073c fbec b93c 39ad 983c
00000240: 8787 e53a f815 ac3c 9d2e 4ebd 0429 3fbd
00000250: 9d83 c4bc 4d82 93bc 8ed6 0f3b 18dc 0d3d
00000260: 13fe 32bc 5b2f febb e32d 933b 256a 47bc
00000270: 8228 453d d409 30bc 4267 a03c d9e3 c8bc
00000280: 4f68 b4bb a44a 0bbc 4f50 4fbc c71e c33c
00000290: 92fb d8bb 3140 363d fe8b 2a3c 4a26 1e3d
000002a0: 0744 1ebb a2ce ce3c 6b2b cc3c 226f 113d
000002b0: fd91 da3b af21 33bc 331b 0dbd 9a62 3fbb
000002c0: eca3 8a3c 6d4e 1e3d 6ffb c0bc 6dab c5bc
000002d0: 8a62 e33b 76df 01bc cab2 0abd e0b2 aabb
000002e0: baa6 c8bc 2dc3 34ba 040d 31bc d52d 67bb
000002f0: 5581 5fbc 4742 5f3b e086 69bc 0ec0 97bb
00000300: 35f5 fabd b4db 96bb 203f 75bc 6d6c 46bc
00000310: a83d 1a3c 89e9 313d fb90 1e3c de08 66bb
00000320: 7617 98bb ee90 803d cab1 a93b 4c88 5cbc
00000330: cd27 983c bedd ecbb 75bb d03b 3c12 663c
00000340: 87f8 07b8 caf3 0d3c c947 4ebc 2b11 353d
00000350: 00ba 303c d9eb 45bc 82e2 73bc 872e 8d3c
00000360: 056e 863b 61f9 b0bc 340b 9f3c 72f3 fa3c
00000370: cba2 ff3c b141 4f3b fdcb 793b 2447 a3bb
00000380: 7dc2 843c 405e afbc 60ef 97bb fd5e 18bb
00000390: c4b8 013e ba8e 8abb 9c48 b13c 9be7 4b3c
000003a0: f42a 873c 0f99 bcbc cb43 0a3c 544a acb8
000003b0: 5e62 d23b 94fe 4abd df8c d4bb 2805 b5ba
000003c0: cb68 a63c 6d05 1f3d 7ef9 61bc b347 09ba
000003d0: 986e fdbb d9c0 34bc 2b3d 1dbd a2f3 213d
000003e0: 495e d03c 5d75 04bc ca33 adbb 375b afbc
000003f0: e2f8 03bb 1c1d da3b a7a8 8c3b 285c c239

weight f4 [18, 18, 3, 3]
0.007031645 -0.028342819 -0.016697746 0.033528544 -0.05413846 -0.07574764 -0.008884118 0.008232127
-0.0026294286 -0.0049729184 -0.023507085 0.012695078 0.040695976 0.035175055 -0.040954344 0.010553834
0.0179852 0.02466839 -0.011881013 -0.022057274 0.021714853 0.00802016 0.05412755 0.020390255
-0.051023126 0.012558854 -0.04590157 0.019162878 0.022047507 0.010425846 0.027923489 0.027865365
-0.0063485685 0.009701401 0.042419918 -0.025132589 0.002740972 -0.045184206 -0.01145174 -0.021048667
-0.001363407 0.04468908 -0.016420742 -0.026989328 -0.028046697 0.0023319311 -0.029367484 -0.026397467
0.061771207 0.038186863 0.018458491 0.017160656 0.037443783 -0.07719075 0.007096033 0.0020886282
-0.010994685 -0.026148245 -0.001807777 0.054895904 0.0034664732 0.017879743 -0.018319998 0.023837
0.03790846 0.017118143 0.01228522 -0.06823137 -0.016761757 0.0017695648 -0.024580438 -0.0060547898
0.0040823817 -0.016744455 -0.0065879095 0.052174352 -0.046855118 0.027365921 0.008933542 0.046526425
0.019695988 0.030207304 0.024564462 0.011735015 0.033008773 -0.022855284 -0.04674423 0.016191514
0.006650806 0.018854532 -0.012479527 0.0097759785 -0.0035426193 -0.007010546 -0.044318777 0.0022977935
-0.027493527 0.023968827 -0.0058226455 -0.014244184 0.0045087924 -0.031300783 0.013901473 0.029570423
-0.0007378703 0.029030254 0.0059809918 0.010138552 0.0074089556 0.03386619 0.011234583 0.08222911
0.06288107 0.031549763 -0.0009770624 0.011045731 0.038675107 0.040427256 0.01863863 0.029354703
0.083434284 0.07138148 -0.0042369105 0.013103533 -0.0010979873 0.023253351 0.015864944 -0.008544709
-0.0134334825 0.10070783 0.11932369 0.037113205 0.004602571 0.006587497 -0.024150819 0.029737081
0.014075403 0.020186411 0.09383143 0.03797129 0.012772126 0.030888338 -0.0020717173 0.030044507
0.051261775 -0.037566442 -0.010994631 -0.04609374 0.015859405 -0.014333162 -0.014794318 0.016855327
-0.049994253 0.044750713 0.028060384 -0.017051002 0.0682544 -0.0142616555 -0.021036534 -0.011436507
-0.017085487 0.030702595 -0.016467355 0.008277238 -0.018998725 -0.0082238745 -0.08605596 -0.030436408
-0.01303882 0.007511199 0.003596601 -0.01137845 0.00769514 -0.0026699346 -0.0061342935 -0.12491067
-0.091999836 -0.028702118 0.0029416597 0.0007345903 -0.0037856065 0.004350344 -0.0042162626 0.033787552
0.02694633 -0.04374919 0.0056672203 0.0036831056 0.03446198 -0.023246374 -0.024559472 -0.03221532
-0.057262246 -0.014947244 -0.01738081 0.010005381 0.0039452016 -0.003993633 0.024463223 -0.0003740607
0.0025617308 -0.0044480674 0.005701446 -0.027836628 0.027200665 0.0010655025 0.0051452806 0.0143280355
0.03516573 0.0030521806 -0.056162093 -0.026117142 -0.017790174 0.010258585 0.013421367 0.007864147
-0.029918434 -0.023710407 -0.015605484 -0.0096783135 0.10726359 -0.06322515 0.008694234 0.00325943
-0.0073617105 -0.009463876 -0.011874408 -0.00633021 -0.0060227085 -0.08148308 -0.052370094 0.0042878683
-0.00078841194 -0.011301455 0.010124766 -0.010049941 0.03134213 -0.058780786 3.365721e-05 -0.0027475804
0.015152116 0.01683913 -0.014702998 -0.00085416203 -0.034442957 -0.0014491966 0.021151176 -0.07715763
0.038156316 -0.04191033 -0.015276886 -0.029759543 -0.02097039 0.0053777616 -0.035820056 -0.05166191
00000000: b769 e63b 332f e8bc b6c9 88bc 3a55 093d
00000010: 4ac0 5dbd 9421 9bbd b18e 11bc 0be0 063c
00000020: 7e52 2cbb ddf3 a2bb ee91 c0bc 04ff 4f3c
00000030: d3b0 263d b813 103d bebf 27bd fde9 2c3c
00000040: b355 933c 5d15 ca3c 95a8 42bc 75b1 b4bc
00000050: 59e3 b13c fd66 033c dab4 5d3d 7709 a73c
00000060: a0fd 50bd a7c3 4d3c 4903 3cbd 78fb 9c3c
00000070: f99c b43c 2bd1 2a3c cdbf e43c e845 e43c
00000080: a707 d0bb a0f2 1e3c 82c0 2d3d dce2 cdbc
00000090: e1a1 333b 1313 39bd 14a0 3bbc 416e acbc
000000a0: 59b4 b2ba e60b 373d cb84 86bc b918 ddbc
000000b0: 30c2 e5bc 50d3 183b 1494 f0bc 803f d8bc
000000c0: ce03 7d3d d469 1c3d 4336 973c 8194 8c3c
000000d0: a75e 193d 2f16 9ebd d785 e83b 5ee1 083b
000000e0: 0d23 34bc d834 d6bc eef2 ecba 87da 603d
000000f0: c52d 633b 8a78 923c d213 96bc d045 c33c
00000100: e745 1b3d 593b 8c3c f347 493c e3bc 8bbd
00000110: f44f 89bc bef0 e73a ea5c c9bc 4267 c6bb
00000120: 80c5 853b ab2b 89bc 64df d7bb c6b4 553d
00000130: 27eb 3fbd 7f2e e03c fe5d 123c 7e92 3e3d
00000140: 7b59 a13c 4f75 f73c 693b c93c 3844 403c
00000150: 3534 073d 013b bbbc e176 3fbd 11a4 843c
00000160: 01ef d93b d274 9a3c ee76 4cbc 6d2b 203c
00000170: 4a2b 68bb b9b8 e5bb 9b87 35bd 9496 163b
00000180: 1b3a e1bc 465a c43c e4cb bebb 7060 69bc
00000190: 7ebe 933b 4035 00bd 01c3 633c ac3d f23c
000001a0: a36d 41ba dbd0 ed3c 32fc c33b 2b1c 263c
000001b0: d3c6 f23b 46b7 0a3d 4211 383c bc67 a83d
000001c0: cac7 803d 533a 013d c610 80ba 27f9 343c
000001d0: ca69 1e3d 0d97 253d 0ab0 983c 4679 f03c
000001e0: 98df aa3d 7430 923d c8d5 8abb 33b0 563c
000001f0: 57ea 8fba d07d be3c 33f7 813c 1bff 0bbc
00000200: 1c18 5cbc e83f ce3d fb5f f43d 0404 183d
00000210: 2ad1 963b eedb d73b f0d7 c5bc 2e9b f33c
00000220: 859c 663c f95d a53c b12a c03d c987 1b3d
00000230: 2e42 513c 8a09 fd3c a6c5 07bb e61f f63c
00000240: def7 513d 45df 19bd d322 34bc cacc 3cbd
00000250: 95eb 813c a4d5 6abc de63 72bc 2f14 8a3c
00000260: c6c6 4cbd 864c 373d e4de e53c 8bae 8bbc
00000270: f6c8 8b3d b8a9 69bc cf54 acbc 3060 3bbc
00000280: ddf6 8bbc 0284 fb3c 8ce6 86bc 419d 073c
00000290: 37a3 9bbc 6ebd 06bc 1b3e b0bd c655 f9bc
000002a0: c6a0 55bc 8120 f63b f4b4 6b3b ae6c 3abc
000002b0: 8327 fc3b 12fa 2ebb 2f02 c9bb 2ad1 ffbd
000002c0: 696a bcbd b420 ebbc dcc8 403b 8591 403a
000002d0: f017 78bb 558d 8e3b 9328 8abb d164 0a3d
000002e0: 8dbe dc3c 5a32 33bd 17b4 b93b 4260 713b
000002f0: 0128 0d3d 2e6f bebc f230 c9bc 36f4 03bd
00000300: d18b 6abd 49e5 74bc 3362 8ebc 9ced 233c
00000310: c046 813b 06dd 82bb 1967 c83c 941d c4b9
00000320: b6e2 273b 18c1 91bb 32d3 ba3b a409 e4bc
00000330: eed3 de3c 55a8 8b3a be99 a83b 23c0 6a3c
00000340: f109 103d 1807 483b 390a 66bd 9ef3 d5bc
00000350: b3bc 91bc a013 283c 4be5 5b3c a0d8 003c
00000360: 8117 f5bc 543c c2bc 25ae 7fbc ca91 1ebc
00000370: 03ad db3d 307c 81bd 4372 0e3c 299c 553b
00000380: 813a f1bb 5f0e 1bbc e18c 42bc a66d cfbb
00000390: 245a c5bb 9ae0 a6bd 0682 56bd 3f81 8c3b
000003a0: 6ead 4eba bd29 39bc 59e2 253c 82a8 24bc
000003b0: 9b60 003d 1fc4 70bd 272b 0d38 c010 34bb
000003c0: 9540 783c 37f2 893c d8e4 70bc d8e9 5fba
000003d0: 0f14 0dbd f8f2 bdba 3b45 ad3c d204 9ebd
000003e0: cc49 1c3d 2baa 2bbd e74b 7abc 49ca f3bc
000003f0: 18ca abbc ef37 b03b 0db8 12bd 709b 53bd

weight f4 [36, 18, 3, 3]
-0.0069033466 0.012546638 0.0114307795 -0.006735435 -0.010595937 -0.03987382 0.005595421 0.012964604
-0.0033591373 0.029113894 0.0070141116 -0.0053612515 -0.06661774 -0.08333133 0.05627877 0.017263496
0.0050227707 0.031224899 0.0038882538 0.020479178 0.05573759 -0.013878252 -0.07670139 -0.03923448
0.0127674425 -0.0035887857 -0.01674528 0.009471175 -0.0034792363 0.006801071 0.03901787 0.014267562
0.031039016 -0.0034375938 -0.014387705 0.000520245 -0.008302861 -0.039532106 0.0049642394 0.032207325
0.022315955 0.022639474 0.027764281 -0.024943957 0.0035042053 0.031881724 -0.015608089 0.027595531
-0.026069723 0.026996003 -0.007943997 0.009892543 -0.0023612485 0.020676412 -0.015335452 -0.004289979
0.019197196 0.046337347 -0.03715877 -0.049367376 -0.004710968 0.02228653 0.044920426 0.0004210788
0.0043890895 -0.008098828 -0.03660425 -0.054020368 0.04053459 -0.01067729 0.0052505694 -0.017265614
0.04846037 -0.012601373 0.0072892797 0.0067740614 -0.00042846173 0.040268008 -0.049171276 -0.0074490653
-0.029056694 -0.0008236003 0.012183519 0.012029504 -0.0019097902 -0.023123689 -0.03598334 0.03229108
0.0076887337 -0.03333216 -0.0326954 -0.007650848 -0.016366674 0.025512738 -0.097896285 -0.034442995
0.01642268 -0.031146232 0.010951046 -0.0225584 0.0038031938 0.015893718 0.030716026 0.021552572
-0.049508728 -0.0068731406 0.0077035795 0.017383594 -0.028913975 0.010949161 0.003373461 -0.03383959
-0.04689967 -0.004567169 0.035522606 -0.03361191 0.024383571 -0.0035000108 -0.021723699 -0.0052657966
-0.007924999 -0.0018816133 0.033369713 -0.005907858 0.010145059 -0.0073698577 -0.026520919 0.013358679
0.0003760888 -0.006842791 -0.07321289 -0.096630216 0.024788273 0.012655879 0.004533609 -0.005571074
0.0064428938 0.021868411 -0.051145963 0.07010566 0.08213859 -0.013267463 -0.0100638075 0.0010478089
0.04510764 0.013474203 0.00092673727 -0.033289865 -0.014996961 0.03521358 -0.007590638 0.012439468
-0.044638127 0.006794921 0.013125779 -0.010951687 0.031328574 -0.07091274 -0.031915966 -0.03073341
0.00091080024 -0.01445293 -0.007918776 -0.012257032 0.027634768 0.045808338 -0.005437856 0.00067398883
-0.04797241 0.031178934 -0.0016891595 0.018891644 -0.0029032489 0.00041965468 0.010871418 0.033458937
-0.028280245 0.01332169 -0.011633022 -0.0006809845 0.017699385 -0.012763348 -0.00628 0.042053085
-0.00551931 0.026720423 -0.007690793 0.0006111652 0.011909172 0.0056102006 0.0011983251 -0.043355778
0.03028633 -0.020534135 -0.0024149343 0.02458884 -0.01228857 0.006721791 0.04319667 0.004347538
0.0059444592 -0.04723167 0.024263028 -0.017901206 0.01090927 0.02173949 0.011367111 0.0092480555
0.00025195416 -0.008052318 0.018652493 0.012055626 0.02268202 -0.0070801727 -0.014206524 -0.02062107
-0.016137335 0.0036174455 -0.015221938 0.058039118 -0.022004442 0.044821765 0.036969148 -0.014880937
0.021556072 0.01626002 0.02029076 0.016046459 -0.052474495 -0.035159037 -0.028576758 -0.015756825
-0.030152142 0.0033765587 -0.017762471 -0.030317131 0.035095666 0.06416374 0.05283981 0.068918064
0.0063180607 0.011748778 -0.009480791 -0.020967402 -0.002744756 -0.041745022 -0.057403117 -0.083443075
0.0029829135 0.015705997 -0.0022276915 0.009673083 -0.018052164 -0.023323143 0.013421678 -0.02385247
00000000: 7835 e2bb 6a90 4d3c 2a48 3b3c edb4 dcbb
00000010: 959a 2dbc bb52 23bd cb59 b73b 7e69 543c
00000020: f924 5cbb 4380 ee3c a2d6 e53b 70ad afbb
00000030: e26e 88bd 9ea9 aabd 9184 663d 2d6c 8d3c
00000040: 0e96 a43b 5ccb ff3c 13d2 7e3b f3c3 a73c
00000050: 194d 643d 9c61 63bc 9e15 9dbd 56b4 20bd
00000060: 892e 513c d531 6bbb 662d 89bc fd2c 1b3c
00000070: e603 64bb 85db de3b 34d1 1f3d 7ec2 693c
00000080: 8945 fe3c 4149 61bb 69ba 6bbc 0d61 083a
00000090: b908 08bc 6bec 21bd 0fab a23b d4eb 033d
000000a0: f3cf b63c 6b76 b93c eb71 e33c 4557 ccbc
000000b0: cfa6 653b 6996 023d 12b9 7fbc 0610 e23c
000000c0: 2c90 d5bc b926 dd3c 8a27 02bc 5514 223c
000000d0: 2dbf 1abb 9461 a93c 8c41 7bbc f492 8cbb
000000e0: 7043 9d3c 3bcc 3d3d cb33 18bd 7235 4abd
000000f0: 775e 9abb 3e92 b63c 7bfe 373d 3dc4 dc39
00000100: 5ad2 8f3b f2b0 04bc 57ee 15bd 7644 5dbd
00000110: 9907 263d cdef 2ebc f80c ac3b 9e70 8dbc
00000120: 627e 463d fd75 4ebc e9da ee3b f2f8 dd3b
00000130: 29a3 e0b9 11f0 243d d267 49bd 4a17 f4bb
00000140: 4e08 eebc e1e6 57ba 629d 473c 6617 453c
00000150: ed51 faba e46d bdbc 4463 13bd a743 043d
00000160: c6f1 fb3b 4e87 08bd 9deb 05bd f7b3 fabb
00000170: 6713 86bc 1700 d13c d97d c8bd 1914 0dbd
00000180: db88 863c 6226 ffbc 046c 333c 65cc b8bc
00000190: 013f 793b 8b33 823c 2da0 fb3c 058f b03c
000001a0: aac9 4abd 1538 e1bb 4f6e fc3b 0a68 8e3c
000001b0: 00dd ecbc 1c64 333c 4915 5d3b 629b 0abd
000001c0: de19 40bd 31a8 95bb 2780 113d a4ac 09bd
000001d0: 0ec0 c73c 7060 65bb e6f5 b1bc b48c acbb
000001e0: dbd7 01bc 77a0 f6ba aeae 083d b496 c1bb
000001f0: 7637 263c d97e f1bb 6642 d9bc 5cde 5a3c
00000200: c92d c539 7e39 e0bb a4f0 95bd 10e6 c5bd
00000210: c710 cb3c 9b5a 4f3c ab8e 943b 8e8d b6bb
00000220: e91e d33b 6225 b33c 6e7e 51bd 8e93 8f3d
00000230: 4738 a83d c65f 59bc abe2 24bc a256 893a
00000240: cac2 383d e7c2 5c3c 49f0 723a f45a 08bd
00000250: d0b5 75bc 1d3c 103d e3ba f8bb e9ce 4b3c
00000260: 78d6 36bd eea7 de3b 820d 573c b46e 33bc
00000270: 6452 003d b33a 91bd 51ba 02bd a2c4 fbbc
00000280: c5c2 6e3a fbcb 6cbc c1bd 01bc b8d1 48bc
00000290: 4f62 e23c 86a1 3b3d 0b30 b2bb a0ae 303a
000002a0: b87e 44bd f76a ff3c ca66 ddba a6c2 9a3c
000002b0: 6f44 3ebb 1905 dc39 081e 323c 3d0c 093d
000002c0: f9ab e7bc 3843 5a3c 6e98 3ebc 1984 32ba
000002d0: 4dfe 903c 5d1d 51bc 75c8 cdbb db3f 2c3d
000002e0: 54db b4bb cae4 da3c 0c03 fcbb 9a36 203a
000002f0: b01e 433c c6d5 b73b 1e11 9d3a d495 31bd
00000300: 0a1b f83c 3437 a8bc e043 1ebb 896e c93c
00000310: 0056 49bc 7842 dc3b feee 303d cb75 8e3b
00000320: bdc9 c23b ff75 41bd 42c3 c63c 8da5 92bc
00000330: cbbc 323c 0417 b23c 1e3d 3a3c 2885 173c
00000340: b718 8439 dfed 03bc 1dcd 983c f684 453c
00000350: a5cf b93c cb00 e8bb 7bc2 68bc 85ed a8bc
00000360: 7232 84bc aa12 6d3b 6f65 79bc 6dba 6d3d
00000370: a942 b4bc 0797 373d f66c 173d 2ccf 73bc
00000380: 5c96 b03c bc33 853c cf38 a63c dd73 833c
00000390: 7fef 56bd ec02 10bd ce19 eabc 7514 81bc
000003a0: a001 f7bc 4149 5d3b 9a82 91bc a25b f8bc
000003b0: 79c0 0f3d 4768 833d 8e6e 583d ea24 8d3d
000003c0: bc07 cf3b f27d 403c 5255 1bbc d4c3 abbc
000003d0: 5de1 33bb d4fc 2abd 881f 6bbd 34e4 aabd
000003e0: fc7c 433b dda9 803c 76fe 11bb da7b 1e3c
000003f0: 22e2 93bc 2d10 bfbc 99e6 5b3c 4166 c3bc

weight f4 [36, 36, 3, 3]
0.004382465 0.010684424 0.008326953 0.013854724 -0.02844949 0.050931845 -0.0055865524 -0.022482136
-0.032085117 0.005552918 -0.028445598 -0.018085983 -0.018014219 0.013475882 0.06368848 0.013418794
0.013391091 -0.040498853 0.009595734 -0.04890277 0.0030273672 0.034878626 0.012055949 0.00353931
0.05126272 -0.025926419 0.0030424907 -0.039000724 0.01052989 0.013951012 0.012152009 -0.06548446
0.02727673 -0.004112772 0.051562585 0.012967429 -0.0045008147 -0.017383529 0.014801883 0.08997924
-0.0025639944 -0.002017943 -0.025793646 -0.038252056 -0.024074158 0.005140684 0.0076951557 0.023537245
0.03617575 0.039857667 0.03005651 -0.005208499 0.018853355 0.027691351 -0.0041115433 0.0037361355
0.026711626 0.03949531 -0.00036084262 0.03662821 -0.0023829364 -0.011641409 0.028927177 -0.0409455
0.010488344 0.013163747 0.03587694 0.08765077 0.07627872 0.0043004206 -0.00051940215 -0.01471552
-0.008606943 0.014141645 -0.027641272 0.0154742515 -0.0034021053 -0.04496245 0.01202404 0.0064283703
0.0033824842 0.019336645 -0.016514787 -0.0056725168 -0.046651714 0.0051708184 0.028941419 -0.011173968
-0.014874976 -0.0063920957 -0.021842184 -0.009131025 0.021963885 -0.0027324944 -0.031072503 -0.097825915
-0.04583886 0.03457617 -0.007847313 -0.02223084 -0.020217583 0.012723504 -0.03997315 -0.022405503
0.019184357 -0.0106214285 -0.017634753 -0.0014020223 0.007916254 -0.01107986 0.02904963 0.13914673
0.015697984 0.020171076 0.007378936 0.0036806264 0.014349325 -0.0022670112 0.017642504 0.011288758
-0.038142882 0.029721837 0.008253167 -0.010401981 -0.03048106 -0.0012377421 -0.02544606 -0.0018231703
-0.02808086 -0.033773165 -0.0155698275 -0.080761954 -0.011678536 0.007960155 -0.01816263 -0.0036035683
0.026226344 -0.008688006 0.012266559 -0.035653148 -0.04768882 -0.009948119 -0.0013832847 0.025001518
-0.0031023067 -0.0063605076 0.030827047 0.07782809 0.037968557 0.010067917 -0.005344145 0.0006680472
0.03435124 -0.016604228 -0.02729095 -0.0062640896 0.046252795 0.020171111 0.008937782 -0.03526833
0.004008823 0.013396754 0.04387117 -0.0019455543 0.00025569941 0.047898185 -0.0026006897 -0.064274155
-0.0057342136 -0.012019393 -0.012766375 -0.040665116 0.019827228 -0.0007582385 0.025199633 0.042375784
-0.024825575 0.0039360467 0.026111381 0.018278858 -0.010948884 -0.00053078856 0.03271096 0.04941663
0.057268053 0.032587342 -0.00991729 -0.04079601 0.0006760506 0.008815935 -0.0049281 -0.006081716
0.02156418 0.00021038286 -0.0022965437 -0.017736632 0.0015136048 -0.015051235 -0.029952032 0.015291603
-0.03160529 0.058306735 -0.010299677 0.026416723 -0.010240131 0.0049575637 0.009731955 -0.010943537
-0.01480691 -0.0036503482 0.01489836 0.058677044 0.03048103 -0.001235063 0.011226758 3.0580824e-05
-0.007907736 0.021598792 0.018386837 -0.028051404 0.0069416803 -0.03328833 0.0048617534 0.03261357
0.0027273272 -0.0352536 0.016683022 0.014193846 -0.03295384 -0.020546736 -0.029882822 -0.006846972
0.053590916 0.0066902954 -0.023088092 0.00816085 -0.014718663 -0.01016137 -0.03396065 -0.045960188
0.030505814 -0.0375976 0.007694132 -0.013001583 -0.01190861 -0.033308163 0.06954949 -0.0017400212
-0.019345067 0.0064412663 0.022116251 0.0014998756 -0.007964166 0.0027585682 0.014871534 -0.0014369189
00000000: c89a 8f3b b90d 2f3c c66d 083c edfe 623c
00000010: e80e e9bc e99d 503d 660f b7bb 752c b8bc
00000020: af6b 03bd 41f5 b53b be06 e9bc 0e29 94bc
00000030: 8e92 93bc f2c9 5c3c 1b6f 823d 80da 5b3c
00000040: 4e66 5b3c 20e2 25bd 6d37 1d3c 454e 48bd
00000050: cb66 463b e4dc 0e3d 5186 453c c5f3 673b
00000060: dcf8 513d a463 d4bc 8664 473b 39bf 1fbd
00000070: 8f85 2c3c c992 643c 3819 473c b71c 86bd
00000080: 7373 df3c 6fc4 86bb 4a33 533d 5775 543c
00000090: 927b 93bb e767 8ebc 9983 723c 0947 b83d
000000a0: b008 28bb 773f 04bb 324d d3bc 30ae 1cbd
000000b0: 2b37 c5bc 2f73 a83b a527 fc3b 2ed1 c03c
000000c0: 062d 143d cb41 233d 1239 f63c 0eac aabb
000000d0: 5a72 9a3c f9d8 e23c 20ba 86bb f4d9 743b
000000e0: 57d2 da3c d6c5 213d 7a2f bdb9 7607 163d
000000f0: 0a2b 1cbb 9cbb 3ebc b0f8 ec3c 78b6 27bd
00000100: 4ed7 2b3c c2ac 573c b3f3 123d 3f82 b33d
00000110: 0438 9c3d 8bea 8c3b 7d28 08ba 5d19 71bc
00000120: 2304 0dbc 5cb2 673c f36f e2bc b787 7d3c
00000130: dbf5 5ebb 8c2a 38bd 7b00 453c 14a5 d23b
00000140: abac 5d3b e267 9e3c 054a 87bc 85e0 b9bb
00000150: de15 3fbd f86f a93b 8e16 ed3c 0513 37bc
00000160: 2cb6 73bc c974 d1bb 61ee b2bc 4b9a 15bc
00000170: 9bed b33c a613 33bb c38b febc f458 c8bd
00000180: 87c1 3bbd be9f 0d3d 0492 00bc 731d b6bc
00000190: 589f a5bc 3e76 503c e3ba 23bd bf8b b7bc
000001a0: 8328 9d3c 8005 2ebc c276 90bc 10c4 b7ba
000001b0: 2db3 013c 4d88 35bc 7df9 ed3c 7b7c 0e3e
000001c0: 0f99 803c d03d a53c 00cb f13b aa36 713b
000001d0: 6e19 6b3c 2392 14bb 0387 903c 7cf4 383c
000001e0: b63b 1cbd 367b f33c 4b38 073c 126d 2abc
000001f0: 6ab3 f9bc bc3b a2ba 4174 d0bc 72f7 eeba
00000200: d509 e6bc bb55 0abd 9718 7fbc 8666 a5bd
00000210: 5557 3fbc 4f6b 023c ccc9 94bc d829 6cbb
00000220: a1d8 d63c 2358 0ebc adf9 483c 0909 12bd
00000230: 5a55 43bd 6ffd 22bc 554f b5ba fccf cc3c
00000240: 1250 4bbb ce6b d0bb 0189 fc3c 5564 9f3d
00000250: eb84 1b3d e8f3 243c f01d afbb e41f 2f3a
00000260: e3b3 0c3d 9705 88bc 4591 dfbc fe42 cdbb
00000270: 9273 3d3d e33d a53c c66f 123c 8675 10bd
00000280: 725c 833b 0f7e 5b3c 42b2 333d f801 ffba
00000290: 650f 8639 e330 443d 5570 2abb 2ba2 83bd
000002a0: 12e6 bbbb fdec 44bc 0f2a 51bc 7790 26bd
000002b0: b66c a23c 86c4 46ba 766f ce3c 3b92 2d3d
000002c0: 015f cbbc f4f9 803b 89e7 d53c 8bbd 953c
000002d0: f362 33bc 9e24 0bba edfb 053d 1869 4a3d
000002e0: e891 6a3d 4e7a 053d 217c 22bc b819 27bd
000002f0: fd38 313a b670 103c e67b a1bb 2249 c7bb
00000300: 5da7 b03c 389a 5c39 9c81 16bb 6a4c 91bc
00000310: 2664 c63a 7599 76bc f75d f5bc a289 7a3c
00000320: 8c74 01bd 0bd3 6e3d fabf 28bc e267 d83c
00000330: 39c6 27bc 0f73 a23b c772 1f3c 854c 33bc
00000340: af98 72bc ae3a 6fbb 4018 743c 5757 703d
00000350: 5ab3 f93c d6e1 a1ba 70f0 373c e943 0038
00000360: 738f 01bc f3ef b03c fe9f 963c 0fcc e5bc
00000370: 0977 e33b 5859 08bd 584f 9f3b cf95 053d
00000380: f5bc 323b 1466 10bd d5aa 883c 4e8d 683c
00000390: 9bfa 06bd a151 a8bc d2cc f4bc 905c e0bb
000003a0: 2682 5b3d 443a db3b 3d23 bdbc 16b5 053c
000003b0: 8c26 71bc e07b 26bc 531a 0bbd c040 3cbd
000003c0: 54e7 f93c f1ff 19bd 0f1f fc3b 9704 55bc
000003d0: 551c 43bc 246e 08bd f76f 8e3d 6c11 e4ba
000003e0: 8c79 9ebc 4211 d33b 242d b53c 7997 c43a
000003f0: 227c 02bc 18c9 343b bca7 733c ff56 bcba

weight f4 [72, 36, 3, 3]
-0.015373313 0.031508286 -0.013960644 0.09211185 0.09640618 -0.011501687 -0.026558513 0.0025429693
-0.0039432026 0.019645672 -0.013430104 -0.03851774 0.0046215747 -0.067399845 -0.020375768 0.025832944
-0.018700441 0.035649534 -0.013486067 -0.03887008 -0.004379198 0.12708469 -0.028365646 -0.011713311
-0.043209232 0.023914136 0.033075478 -0.013486381 0.0044944435 -0.0018650407 0.025444524 -0.00616334
0.02242698 0.0153179895 0.004687935 0.00022357919 -0.001117179 -0.018608984 -0.009804838 -0.05646642
-0.028112683 0.0019490166 0.01821078 -0.0045448933 0.03374178 0.00056792493 -0.0048345625 -0.009616977
0.01985683 0.013574217 0.019852266 -0.0025240558 -0.016317887 0.015860688 -0.0090106735 -0.019042525
-0.02350536 0.032804493 0.009651101 -0.0323528 -0.019879544 0.0069282553 0.0029533964 0.0025166296
-0.010340484 0.005078608 -0.04026485 -0.00948442 -0.044532415 0.002933155 -0.008192567 0.0056391745
0.028892629 0.00088893174 -0.0073354887 0.10109259 0.008188287 -0.031246468 0.036556248 -0.004894964
0.0061445395 -0.0010272474 0.002127741 0.016893564 0.036598023 0.0019749133 -0.012509083 0.01021845
0.0014969119 -0.0062264535 0.005499027 0.03188623 0.027337119 0.057692204 0.07999589 0.016598752
0.0013657119 -0.012020111 0.001660676 0.0052974657 -0.01318529 -0.0043363757 0.059296124 0.021571554
0.04675322 -0.051817488 -0.016351674 -0.009240493 -0.03682569 -0.014251413 -0.0010420084 -0.04727719
-0.052047476 -0.008516487 0.021765815 0.000102912956 0.020848216 0.027268369 -0.00547344 -0.00931104
0.036437143 0.043516885 0.010670515 -0.00031981166 0.008033586 0.014530145 0.0119737405 0.002674205
-0.007586672 -0.05345076 0.001364046 0.019708183 -0.00048614654 0.018030863 -0.012372951 0.016240153
0.0041268626 -0.015194544 -0.06861372 0.009515353 0.041587673 3.4901786e-05 -0.0029854502 0.017202763
-0.014071809 -0.0018291075 0.029153172 0.08813825 0.053367253 -0.039610077 0.0068501327 0.01722815
-0.018102707 0.0068163457 -0.019059744 -0.009426165 0.031828757 0.008537508 -0.018409654 0.022408709
-0.008687492 0.004376281 0.009318393 0.015829349 -0.035224486 0.011077951 0.06394226 -0.032269094
0.011980657 0.005297431 0.0026797983 0.0006184087 -0.010306622 -0.047868934 -0.0999884 -0.0074262447
0.019461248 0.024489304 -0.011445135 -0.0153339235 0.021059226 0.010389034 0.023841547 -0.08502655
0.026064834 0.016387286 0.03754031 -0.012424079 -0.020931758 0.011629051 -0.0116579635 -0.016595248
0.034362584 0.10400906 0.019465027 -0.0533066 0.011070244 0.028752686 -0.012038722 0.017609967
0.0031401375 0.0145052625 -0.08971058 -0.025097882 0.027998524 -0.029116515 0.007505747 -0.003577572
0.009294959 0.011274868 0.026710901 0.025209919 0.06453344 0.008536749 -0.034173205 -0.021374868
-0.002510611 -0.005637795 0.007067802 -0.02839066 -0.004385496 0.04889953 0.010625492 0.043032322
-0.044514254 -0.009480476 -0.015953325 0.018076604 0.037628163 0.05060798 -0.016376246 -0.052493215
-0.02610218 -0.022932267 0.006589581 0.00040699274 -0.023662353 0.028386971 0.0442237 0.010794537
-0.0040232586 0.017035928 0.006130092 -0.0019841208 0.0044815773 -0.013644512 -0.0037409186 0.02692347
-0.02405509 0.00048889796 0.013228521 -0.00097060006 -0.000586645 0.0018700082 -0.027379649 0.006382683
00000000: 59e0 7bbc d50e 013d 2fbb 64bc 23a5 bc3d
00000010: 9a70 c53d 9271 3cbc 3d91 d9bc f2a7 263b
00000020: fb35 81bb f6ef a03c f009 5cbc c7c4 1dbd
00000030: 9470 973b ee08 8abd 15eb a6bc 9c9f d33c
00000040: ab31 99bc 3f05 123d aaf4 5cbc 3c36 1fbd
00000050: 607f 8fbb 7d22 023e 125f e8bc 30e9 3fbc
00000060: 2afc 30bd 94e7 c33c 277a 073d fbf5 5cbc
00000070: 2046 933b 6274 f4ba 0971 d03c d8f5 c9bb
00000080: c9b8 b73c 4ef8 7a3c 409d 993b 9570 6a39
00000090: 4f6e 92ba de71 98bc 79a4 20bc 5549 67bd
000000a0: 924c e6bc 2576 ff3a c62e 953c 54ed 94bb
000000b0: d234 0a3d cce0 143a 406b 9ebb 8690 1dbc
000000c0: caaa a23c 6566 5e3c 38a1 a23c a16a 25bb
000000d0: 17ad 85bc 46ee 813c 81a1 13bc 12ff 9bbc
000000e0: 508e c0bc 015e 063d a71f 1e3c 5f84 04bd
000000f0: 6dda a2bc 6b06 e33b c58d 413b 0aee 243b
00000100: 226b 29bc 746a a63b c1ec 24bd 8a64 1bbc
00000110: 9f67 36bd 2d3a 403b 1e3a 06bc d3c8 b83b
00000120: 3cb0 ec3c 3307 693a 8a5e f0bb a209 cf3d
00000130: 2a28 063c 98f8 ffbc 01bc 153d ef65 a0bb
00000140: 2258 c93b b4a4 86ba 9271 0b3b 5f64 8a3c
00000150: cfe7 153d 8c6d 013b e6f2 4cbc 496b 273c
00000160: 0734 c43a 4707 ccbb 2f31 b43b 239b 023d
00000170: 18f2 df3c a94e 6c3d e3d4 a33d 1bfa 873c
00000180: b001 b33a 00f0 44bc 0aab d93a 5d96 ad3b
00000190: 1d07 58bc 2818 8ebb 7ee0 723d d4b6 b03c
000001a0: 4e80 3f3d 933e 54bd f2f3 85bc 7065 17bc
000001b0: 89d6 16bd c27e 69bc 0094 88ba baa5 41bd
000001c0: bc2f 55bd bc88 0bbc 394e b23c f9d2 d738
000001d0: e1c9 aa3c ea61 df3c 8b5a b3bb 558d 18bc
000001e0: 1d3f 153d c33e 323d 62d3 2e3c 65ac a7b9
000001f0: 4d9f 033c d80f 6e3c 822d 443c b741 2f3b
00000200: 9e99 f8bb 2fef 5abd cac9 b23a 0e73 a13c
00000210: 7ce1 feb9 76b5 933c ebb7 4abc 120a 853c
00000220: a23a 873b 89f2 78bc 5a85 8cbd 48e6 1b3c
00000230: d657 2a3d 8263 1238 8ba7 43bb cfec 8c3c
00000240: 728d 66bc aabe efba a2d2 ee3c d481 b43d
00000250: 9f97 5a3d 2d3e 22bd 1477 e03b 0d22 8d3c
00000260: 214c 94bc a75b df3b 2e23 9cbc 3470 1abc
00000270: df5e 023d e7e0 0b3c d8cf 96bc 7892 b73c
00000280: fc55 0ebc e866 8f3b 2cac 183c 8dac 813c
00000290: 8d47 10bd 4b80 353c 29f4 823d 992c 04bd
000002a0: 844a 443c 1296 ad3b 8e9f 2f3b b51c 223a
000002b0: 1bdd 28bc 3712 44bd b8c6 ccbd db57 f3bb
000002c0: 326d 9f3c cb9d c83c 6084 3bbc 233b 7bbc
000002d0: 6684 ac3c c436 2a3c 594f c33c 6622 aebd
000002e0: eb85 d53c a13e 863c dec3 193d 5d8e 4bbc
000002f0: 1479 abbc c687 3e3c 0b01 3fbc c2f2 87bc
00000300: c8bf 0c3d b402 d53d 1f75 9f3c 0558 5abd
00000310: f85f 353c c18a eb3c 0f3e 45bc c742 903c
00000320: c4ca 4d3b 7ba7 6d3c 2eba b7bd 139a cdbc
00000330: 295d e53c c285 eebc c5f2 f53b b375 6abb
00000340: e249 183c 39ba 383c d2d0 da3c 0885 ce3c
00000350: 1c2a 843d b8dd 0b3c 34f9 0bbd 591a afbc
00000360: 1089 24bb 41bd b8bb 0599 e73b 8893 e8bc
00000370: 35b4 8fbb e04a 483d 8b16 2e3c a942 303d
00000380: 9454 36bd 0054 1bbc 8cb0 82bc 6315 943c
00000390: fd1f 1a3d 504a 4f3d 7a27 86bc 2003 57bd
000003a0: 3dd4 d5bc 73dc bbbc 69ed d73b a461 d539
000003b0: 8dd7 c1bc cb8b e83c e923 353d 92db 303c
000003c0: 8ad5 83bb ee8e 8b3c f0de c83b 0608 02bb
000003d0: 32da 923b 3b8d 5fbc 332a 75bb 9c8e dc3c
000003e0: 2e0f c5bc 6329 003a 70bc 583c de6f 7eba
000003f0: 14c9 19ba 101b f53a 494b e0bc d325 d13b

weight f4 [72, 72, 3, 3]
0.004825099 0.011133203 -0.016710637 -0.005429431 0.013751559 0.021508172 0.0071465117 -0.034909684
0.00554368 0.0020283035 -0.00037274763 -0.0105237635 0.023775304 -0.017831478 0.013662968 0.007153589
0.022751864 0.0063301846 -0.029470537 -0.02199542 -0.0072627054 -0.029927798 -0.0063372576 0.079277575
-0.00488873 0.0013967563 0.028432433 0.03324197 -0.0332832 0.0118381 0.052820053 0.037428327
0.036377102 0.020320972 -0.0054547237 -0.029054957 -0.014824855 0.010342381 -0.025173513 0.022763956
0.0349918 -0.033702925 -0.036470033 0.026229229 0.0030302864 -0.034274656 0.034029875 0.0047693504
0.0039954334 0.06733236 0.015291364 0.0065197377 0.024379158 -0.010890526 0.011464255 0.010631088
0.026663635 0.01876033 -0.014147677 -0.048633616 0.011183734 -0.036013152 0.018998608 0.011846786
0.0018026121 0.047558766 0.058944505 -0.01355512 0.018636357 0.0077471933 -0.006782826 0.0017551712
0.006399129 -0.0016368455 0.0073322514 -0.013588614 0.009065108 -0.04643492 -0.001155016 0.0054388857
-0.014849633 0.019320117 -0.0050754873 0.025414621 0.007116134 -0.011689162 -0.024346847 0.0028293286
-0.016340848 -0.0068213684 -0.0048053665 -0.0041053975 0.009339288 -0.0010542908 0.008915286 0.003991069
0.010550662 -0.002194886 -0.009531611 0.011118903 -0.03931402 0.0030805056 0.013893668 -0.031205213
-0.058368653 -0.030240037 0.0116083585 0.01730514 -0.01885934 0.024095554 -0.0007425869 -0.031244604
0.015458732 0.014806673 0.016680162 0.0014217088 -0.019356413 0.003043538 0.011229662 -0.045467634
0.035327032 0.043131463 0.014377364 0.009446961 -0.01116227 -0.0368125 0.014561271 0.044759843
-0.003858809 -0.013787499 0.059450842 0.010851692 -0.00045720852 0.01961546 -0.03710878 0.012354842
0.019436764 -0.025379088 -0.023513239 -0.025316564 -0.05905217 0.014673069 -0.0009993882 -0.004391052
-0.01612879 0.0031587058 0.0005578387 -0.020435136 0.044720687 -0.019954888 -0.04336056 -0.055245306
-0.02523054 -0.03965109 -0.015053004 0.011227937 0.00467863 0.0038473406 -0.062137064 -0.018230999
-0.0067761545 -0.021103352 0.008315069 0.010109637 0.002758571 0.008122523 0.0032734699 0.018134046
0.01649647 -0.0094850175 0.017388877 -0.023166623 0.0068202456 0.00672298 0.021906592 -0.019390052
-0.0047129556 -0.0033403651 0.006150134 0.025313381 -0.0003913185 -0.018214876 0.0027885134 0.008411427
-0.003826483 -0.06860247 0.014151928 0.008176991 -0.00062739465 -0.017807452 -0.0008167006 0.010176563
-0.028826294 0.022715619 -0.0036788555 0.008196358 -0.02948859 -0.028953483 0.010039344 -0.0049090413
0.03072327 0.008785334 -0.018528003 -0.020696696 -0.012813432 0.0005249045 0.009429685 -0.0320567
0.006494265 0.023967778 0.063684106 0.015057734 -0.013565 -0.025069412 0.04690266 0.028663086
0.029687196 0.01228695 -0.023374455 -0.0061478703 0.02961212 0.02413645 -0.016371435 0.0007298623
-0.0027666423 0.0005513723 0.02298823 -0.00043449257 -0.062262833 0.042413693 0.019979045 0.020073
-0.016916882 0.0418654 0.0070931795 0.021083228 -0.0047511947 -0.018221138 0.018292576 -0.06397503
-0.023109049 -0.020405628 -0.0055765007 0.026132008 0.03814603 -0.025970086 -0.02639602 -0.024179352
0.018272363 -0.0018662397 -0.0022196374 -0.016638057 -0.03851512 0.039965414 -0.022041492 -0.004342424
00000000: dd1b 9e3b 0a68 363c bfe4 88bc 5ee9 b1bb
00000010: 384e 613c e831 b03c 492d ea3b 75fd 0ebd
00000020: c2a7 b53b 49ed 043b 576d c3b9 dd6b 2cbc
00000030: 6dc4 c23c 5213 92bc a4da 5f3c a768 ea3b
00000040: 1e62 ba3c 706d cf3b 326c f1bc bd2f b4bc
00000050: fdfb edbb 242b f5bc c5a8 cfbb 485c a23d
00000060: a431 a0bb 5d13 b73a 22eb e83c bb28 083d
00000070: f753 08bd 97f4 413c d759 583d 724e 193d
00000080: 2800 153d 2b78 a63c 8abd b2bb a904 eebc
00000090: f3e3 72bc 1773 293c af38 cebc 7a7b ba3c
000000a0: 9053 0f3d 140c 0abd 9a61 15bd aede d63c
000000b0: c597 463b 9563 0cbd e962 0b3d 3648 9c3b
000000c0: 20ec 823b 8ce5 893d a188 7a3c 86a3 d53b
000000d0: cdb6 c73c 2d6e 32bc 92d4 3b3c 042e 2e3c
000000e0: b26d da3c 43af 993c a9cb 67bc 0b34 47bd
000000f0: fb3b 373c 8782 13bd f8a2 9b3c 0619 423c
00000100: a045 ec3a fbcc 423d cb6f 713d 4b16 5ebc
00000110: 46ab 983c 2bdc fd3b 7842 debb c60d e63a
00000120: c9af d13b 6c8b d6ba 6243 f03b c7a2 5ebc
00000130: d285 143c 8b32 3ebd e863 97ba ae38 b23b
00000140: e04b 73bc 3945 9e3c 4650 a6bb 5332 d03c
00000150: 752e e93b e683 3fbc 0a73 c7bc 426c 393b
00000160: 3edd 85bc c985 dfbb 5676 9dbb 9286 86bb
00000170: d003 193c 2130 8aba 6b11 123c 83c7 823b
00000180: afdc 2c3c 14d8 0fbb 792a 1cbc 0f2c 363c
00000190: bd07 21bd 4fe2 493b 44a2 633c 13a2 ffbc
000001a0: f813 6fbd f4b9 f7bc fc30 3e3c 82c3 8d3c
000001b0: e77e 9abc 0a64 c53c 2aaa 42ba aff4 ffbc
000001c0: 9f46 7d3c b097 723c d6a4 883c a258 ba3a
000001d0: 5791 9ebc 1876 473b 9efc 373c 453c 3abd
000001e0: 14b3 103d 9eaa 303d 098f 6b3c 6dc7 1a3c
000001f0: f4e1 36bc b4c8 16bd 6692 6e3c 1956 373d
00000200: 12e4 7cbb f6e4 61bc ba82 733d 4ccb 313c
00000210: 7db5 efb9 9ab0 a03c 60ff 17bd f76b 4a3c
00000220: d939 9f3c cee7 cfbc d69e c0bc af64 cfbc
00000230: b0e0 71bd 5067 703c e7fd 82ba d0e2 8fbb
00000240: 8620 84bc 4a02 4f3b ec3b 123a 9667 a7bc
00000250: 0a2d 373d 6f78 a3bc d89a 31bd e748 62bd
00000260: 47b0 cebc 2e69 22bd e0a0 76bc 62f5 373c
00000270: 314f 993b aa23 7c3b 6f83 7ebd 2d59 95bc
00000280: 810a debb f0e0 acbc ed3b 083c e4a2 253c
00000290: 24c9 343b 5514 053c b687 563b da8d 943c
000002a0: 9b23 873c 0c67 1bbc 1e73 8e3c eec7 bdbc
000002b0: 5e7c df3b 724c dc3b 7475 b33c e3d7 9ebc
000002c0: 236f 9abb 07ea 5abb 1087 c93b 025e cf3c
000002d0: e129 cdb9 5d37 95bc 7ebf 363b 15d0 093c
000002e0: bbc5 7abb 747f 8cbd 7ddd 673c c9f8 053c
000002f0: be77 24ba efe0 91bc d917 56ba 99bb 263c
00000300: 1f25 ecbc 1b16 ba3c f418 71bb 044a 063c
00000310: 0e92 f1bc db2f edbc 107c 243c 06dc a0bb
00000320: 5eaf fb3c 5df0 0f3c 0ac8 97bc 1e8c a9bc
00000330: 6eef 51bc bf99 093a f77e 1a3c e34d 03bd
00000340: d8cd d43b 1358 c43c d06c 823d b7b4 763c
00000350: bc3f 5ebc 5e5e cdbc 011d 403d d9ce ea3c
00000360: 9032 f33c 344f 493c c97b bfbc 1374 c9bb
00000370: 1e95 f23c ceb9 c53c 631d 86bc 3b54 3f3a
00000380: 8e50 35bb f889 103a d051 bc3c 9bcc e3b9
00000390: 5007 7fbd fbb9 2d3d 18ab a33c 2270 a43c
000003a0: 4695 8abc 0e7b 2b3d e76d e83b bcb6 ac3c
000003b0: e9af 9bbb 7f44 95bc 50da 953c 5705 83bd
000003c0: 304f bdbc b429 a7bc 14bb b6bb cb12 d63c
000003d0: 033f 1c3d 38bf d4bc 773c d8bc c713 c6bc
000003e0: ecaf 953c 9d9c f4ba 5677 11bb 894c 88bc
000003f0: 08c2 1dbd c6b2 233d 5c90 b4bc e54a 8ebb
