saved_model/C_220812172434_dsets0_60.0Hz_Raw_UNet_MSE_Epoch1515.pt (torch, 601055 bytes, 21 tensors)

weight f4 [9, 1, 3, 3]
0	0xbc977f27	-0.018493248
1	0xbc0b6076	-0.008506885
2	0xbd589577	-0.052876916
3	0xbbd965ec	-0.0066344645
4	0xbb54b67c	-0.0032457402
5	0xbc54ea7c	-0.012995359
6	0xbc4c1887	-0.01245702
7	0xbbd7362e	-0.006567738
8	0xbcb00d8e	-0.021490838
9	0xbbedfd72	-0.007262879
10	0xbd08e477	-0.033421006
11	0x3d399714	0.045310095
12	0x3cfaa374	0.030595519
13	0x3d1fc98e	0.039010577
14	0x3d3ca189	0.04605249
15	0x3cc1a6b0	0.023639053
16	0xbb268a0a	-0.0025411868
17	0x3cc7601b	0.024337819
18	0x3ceb29af	0.0287064
19	0x3cadbef0	0.02120921
20	0xbc21eac8	-0.009882636
21	0xbd3ad146	-0.045609735
22	0x3d267d2d	0.04064672
23	0xbe19d082	-0.15020946
24	0x3ab6b012	0.0013937971
25	0xb91b53ba	-0.00014813142
26	0x3d1b65e3	0.037938964
27	0x3c615f05	0.013755565
28	0xbacc5610	-0.0015589613
29	0xbc892e11	-0.016745599
30	0x3c622ff6	0.01380538
31	0x3ba0c159	0.0049058613
32	0xbc377bc3	-0.011198941
33	0xbbd720cb	-0.0065651885
34	0xbc94dda6	-0.018172096
35	0xbc840b73	-0.01611874
36	0xbc72b38a	-0.014813313
37	0xba841520	-0.0010077097
38	0x3c321624	0.010869537
39	0x3d165f31	0.036711875
40	0xbd650fc6	-0.055923246
41	0x3d1bd37d	0.038043488
42	0x3d05ee94	0.03269823
43	0x3c696fce	0.014247848
44	0xbb6cac93	-0.0036113604
45	0x3ca7f8f2	0.020504449
46	0xbcef8f1b	-0.029243043
47	0xbc778645	-0.015107696
48	0xbb46f03c	-0.0030355593
49	0x3b863d7b	0.0040966845
50	0x3baf1594	0.0053431485
51	0xbad98e41	-0.0016598181
52	0x3c92fc10	0.017942458
53	0xbcb63bc4	-0.022245295
54	0x3b12562b	0.0022329192
55	0x3c1f57e6	0.009725546
56	0xbc343417	-0.010998747
57	0xbc412075	-0.0117875235
58	0xbcabc3a5	-0.020967314
59	0x3cd62240	0.026139379
60	0x3bb9ea90	0.005673714
61	0x3b1ea436	0.0024206764
62	0x3c1afba7	0.009459413
63	0xbcb1523e	-0.021645661
64	0xba2f5a87	-0.000668921
65	0xbc9f7ce6	-0.019468736
66	0x3d42ff76	0.047606908
67	0xbcc892f1	-0.02448413
68	0xbcf85933	-0.030315971
69	0x3b180886	0.002319844
70	0x3c6083d4	0.013703305
71	0xbc0721e3	-0.008247825
72	0xbc5ccbb2	-0.013476299
73	0xbc3117c1	-0.010808886
74	0x3c620cab	0.013796966
75	0xbe221a33	-0.15830307
76	0xbc4e78eb	-0.012602071
77	0xbcf49831	-0.029857727
78	0x3bebc222	0.0071947733
79	0xbc253c3c	-0.010085162
80	0xbbcb8165	-0.0062104934

weight f4 [9, 9, 3, 3]
0	0x3b6d0314	0.0036165165
1	0xbc34f729	-0.011045256
2	0x3c975b8a	0.018476266
3	0xbd1d3995	-0.038384993
4	0x3d4936b3	0.04912443
5	0x3d593750	0.053031266
6	0x3b29f14f	0.0025931185
7	0xbc9a1d4d	-0.0188128
8	0x3c84dc03	0.016218191
9	0x3c9083ea	0.017641027
10	0xbca60337	-0.020265205
11	0xbbee223d	-0.007267265
12	0x3c9c61dd	0.019089634
13	0x3c9bcc4b	0.019018313
14	0xbb95c6c5	-0.0045708143
15	0xbb30817b	-0.0026932645
16	0xbbcbfe41	-0.006225378
17	0x3d12c55d	0.03583275
18	0xbc8aea44	-0.01695741
19	0x3d0708fb	0.03296755
20	0x3c02460c	0.007951271
21	0xbdd11622	-0.102092996
22	0xbb774bb5	-0.0037734334
23	0xbc92f038	-0.01793681
24	0xbbb5e430	-0.0055508837
25	0xbc7e4495	-0.015519281
26	0x3ca5408e	0.020172384
27	0xbc2e3185	-0.010631924
28	0x3c693042	0.014232697
29	0x3c307b9d	0.010771659
30	0x3d51f29b	0.051256757
31	0x3d588e64	0.05287017
32	0xbcbd92ff	-0.023141382
33	0xbc380799	-0.01123228
34	0x3d77f69b	0.060537916
35	0xbaaff96e	-0.0013425776
36	0xbc011ca2	-0.007880362
37	0xbb1377e1	-0.0022501873
38	0x3d20705d	0.039169658
39	0x3bb1e693	0.005429098
40	0x3c88730d	0.016656423
41	0x3c574d92	0.013141053
42	0x3aa0429a	0.001222688
43	0xbbbf1967	-0.0058318856
44	0x3d3a600f	0.045501765
45	0x3b0c393a	0.0021396414
46	0xb950a7dd	-0.0001989896
47	0x3c07db8e	0.008292092
48	0xbc7561ee	-0.014976962
49	0xbd640552	-0.055669136
50	0xbc4cb44f	-0.012494161
51	0x3ba1302c	0.0049190726
52	0xbd1a8ac4	-0.037729993
53	0x3d513ec1	0.051085237
54	0x3ca9ec52	0.02074257
55	0xbd196a1f	-0.03745472
56	0xbc8fc584	-0.017550237
57	0x3db13a89	0.08653743
58	0xbcb24ad1	-0.02176419
59	0xbc9dd720	-0.019267619
60	0xbc7a637d	-0.015282509
61	0x3c69b799	0.0142649645
62	0x3c260a72	0.010134326
63	0x3bf4e562	0.0074736336
64	0x3d296905	0.04135992
65	0xbcd62521	-0.026140751
66	0x3d18e163	0.03732432
67	0xbccab93e	-0.024746533
68	0x3cbbf24a	0.02294268
69	0xbc3814dd	-0.011235443
70	0xbce54759	-0.027988123
71	0x3c442e34	0.011973906
72	0xba16f807	-0.0005759005
73	0x3c8bdcf7	0.017073138
74	0xbcdd7cb9	-0.027037011
75	0xbd2565eb	-0.0403804
76	0x3da0118d	0.078158475
77	0xbd04b0fa	-0.03239534
78	0x3b8b7414	0.004255781
79	0xbbb84f06	-0.0056246547
80	0xbc96db88	-0.018415228
81	0x3bcd70d4	0.0062695537
82	0x3b2fc662	0.0026821126
83	0x3c6f24e0	0.014596194
84	0x3d2ac627	0.04169288
85	0xbb255ed2	-0.002523352
86	0xbc9192f9	-0.017770277
87	0x3c1f0bed	0.009707433
88	0x3bbf5239	0.005838659
89	0x3c9fdba6	0.019513916
90	0xbbb64de9	-0.005563487
91	0xbc36b4fb	-0.011151548
92	0x3c2c4b06	0.010515934
93	0x3c8e8b28	0.01740034
94	0x3d50ffe7	0.051025297
95	0xbab3b197	-0.0013709542
96	0xbcac8500	-0.021059513
97	0x3bf88be6	0.0075850366
98	0xbc4c874a	-0.012483427
99	0xbb819242	-0.003954203
100	0x3c243d78	0.010024421
101	0xbbc0b99b	-0.005881501
102	0xb9be2517	-0.00036267258
103	0xbd232962	-0.039834388
104	0xbd0883a7	-0.03332868
105	0x3b9192a2	0.004442529
106	0x3c9a8957	0.018864317
107	0xbbb6a17e	-0.0055734506
108	0xbc8e8f8a	-0.01740243
109	0xbc8ce59b	-0.017199328
110	0xbcf84e79	-0.030310856
111	0x3c026226	0.007957971
112	0xbce61215	-0.028084794
113	0xbce7944d	-0.028268958
114	0x3cca3c02	0.024686817
115	0xbcf6a3f3	-0.030107474
116	0x3c4f0626	0.012635743
117	0xbce9d9e6	-0.028546285
118	0x3b6e45a3	0.0036357425
119	0x3c327a4f	0.010893418
120	0x3cdb5810	0.02677539
121	0xbc36ed3f	-0.011164962
122	0x3ad985ef	0.0016595701
123	0x3d11f7ce	0.035636716
124	0x3b9812fb	0.0046409345
125	0x3b336278	0.0027371924
126	0x3cd01812	0.025402103
127	0xbc047735	-0.008085062
128	0x3c27aebd	0.010234532
129	0xbb9680f7	-0.0045930105
130	0xbd4ba16f	-0.049714502
131	0xbbcdf6f7	-0.006285544
132	0xbce990c1	-0.028511407
133	0x3c7db2d4	0.0154845305
134	0x3a9e406c	0.0012073643
135	0xbc09cae5	-0.00841019
136	0x3cd4f104	0.025993831
137	0x3c913605	0.017725954
138	0x3c24ff41	0.010070623
139	0x3d48acd4	0.048992947
140	0x3ca0bad6	0.01962034
141	0x3cebc057	0.028778238
142	0x3d4215d0	0.047384083
143	0x3ca69f53	0.020339644
144	0x3cb030d7	0.021507664
145	0xbccc797c	-0.024960272
146	0xbc7c1415	-0.015385647
147	0xbb78210b	-0.0037861492
148	0xbd3985d0	-0.04529363
149	0xbc7fa0fb	-0.015602346
150	0xb835a177	-4.330414e-05
151	0xbd1c109b	-0.038101774
152	0xbc61548c	-0.013753068
153	0xbc2718be	-0.01019877
154	0xbc8d8361	-0.01727456
155	0x3ba70827	0.0050974074
156	0x3c0bdfc3	0.008537236
157	0xbc4088e0	-0.011751384
158	0xbb1b58ab	-0.0023703973
159	0xbc3157e1	-0.010824175
160	0xbc42ef26	-0.011897838
161	0x3ba2594e	0.0049544936
162	0xbd1b891b	-0.03797255
163	0x3d2ba6ee	0.041907243
164	0xbc1b84d4	-0.009492118
165	0xbd387372	-0.045031972
166	0x3beacfcc	0.0071658846
167	0xbd1346c6	-0.035956167
168	0x3c78872b	0.015168945
169	0xbb7cb54c	-0.003856021
170	0xbcea1ac2	-0.028577212
171	0x3cd89b67	0.02644129
172	0x394f3a29	0.00019762725
173	0x3cb9cfcf	0.022682099
174	0xbc1a4960	-0.009416908
175	0xba89ea11	-0.0010522028
176	0x3db29feb	0.08721908
177	0xbc4a3775	-0.012342324
178	0x3a4fe2c1	0.00079302123
179	0x3c93c899	0.018039988
180	0x3b8dcd2f	0.0043274383
181	0x3c27d1e1	0.01024291
182	0x3ce373d5	0.027765194
183	0xbc28bf75	-0.010299553
184	0xbb082d98	-0.002077913
185	0xba5dd1ec	-0.0008461762
186	0xbc2d5ee9	-0.01058171
187	0x3bd35021	0.006448761
188	0x3a71927e	0.00092152494
189	0xbaf44a74	-0.0018637911
190	0xbc143a5f	-0.00904712
191	0x3c6a3817	0.014295599
192	0x3d4186fb	0.047247868
193	0x3bb02210	0.0053751543
194	0x3d2ef80d	0.04271703
195	0xbc80aadb	-0.01570647
196	0xbc193719	-0.009351515
197	0x3c1c6226	0.009544885
198	0x3cb1778b	0.021663448
199	0x3c78fde2	0.015197249
200	0x3c426ccf	0.011866762
201	0xbc8de54c	-0.017321251
202	0xbbf7bd37	-0.007560398
203	0x3c8162ed	0.015794242
204	0x3c24ca61	0.0100580165
205	0x3acb2b6e	0.0015500614
206	0xbccd4014	-0.025054969
207	0xbc78f41e	-0.015194921
208	0x3b96092d	0.0045787306
209	0x3cbac4b3	0.022798872
210	0xbd249145	-0.040177602
211	0x3d779406	0.0604439
212	0x3c8cffce	0.01721182
213	0xbd075a9a	-0.03304539
214	0xbd1d6b19	-0.038432214
215	0xbc247cc7	-0.010039515
216	0x3cc84d04	0.024450786
217	0x3c605a17	0.013693354
218	0x3c05dfc4	0.008171026
219	0xbd96dd09	-0.07366378
220	0xbd34ea18	-0.04416856
221	0xbd226fa2	-0.039657243
222	0xbc8823c1	-0.016618611
223	0xbaa55742	-0.0012614506
224	0x3c9efe96	0.019408505
225	0xbb3fc46e	-0.0029261368
226	0x3c8f5386	0.017495882
227	0xbacc774b	-0.0015599517
228	0xbbb5fc2d	-0.0055537433
229	0xbb6a514d	-0.0035754025
230	0xbb9f615d	-0.0048639015
231	0xbcdffb84	-0.027341612
232	0xbca7dc1c	-0.020490699
233	0xbc652901	-0.013986827
234	0xbc52b860	-0.012861341
235	0xbcb64278	-0.022248492
236	0xbd148dcb	-0.036268037
237	0x3c26aaa7	0.010172523
238	0x3c068bd0	0.008212045
239	0x3c40301e	0.011730222
240	0x3c208b36	0.0097988155
241	0x3ce2dfac	0.027694546
242	0xbc1a4a23	-0.00941709
243	0x3ccd7460	0.025079906
244	0xbc5e03c9	-0.013550707
245	0x3c0ee6e0	0.008722037
246	0x3d6e701b	0.05821238
247	0xbb2810e2	-0.0025644829
248	0x3d296d25	0.041363854
249	0xbb00c793	-0.0019650206
250	0x3b8399cf	0.004016138
251	0xbcbae2a7	-0.022813154
252	0xbc9c5798	-0.019084737
253	0x3b3437a1	0.0027498978
254	0xbd11f3be	-0.03563284
255	0x3bbf0f94	0.0058307145

weight f4 [18, 9, 3, 3]
0	0x3d506995	0.05088194
1	0xbc6abbb3	-0.014326978
2	0xbc21aac9	-0.0098673785
3	0xbd1fd34a	-0.03901986
4	0xbc34c5cf	-0.011033489
5	0x3b3c5dcd	0.0028742433
6	0x3c93d379	0.018045174
7	0x3c84b2ea	0.016198594
8	0xbc619167	-0.013767577
9	0x3b33e393	0.0027448877
10	0x3caa05f2	0.020754788
11	0x3af29a4b	0.0018509118
12	0xbc482702	-0.012216331
13	0x3c95320c	0.01821234
14	0x3d68b734	0.05681534
15	0xbd14cc2d	-0.03632753
16	0xbbb22e07	-0.005437616
17	0x3bb83d29	0.0056225252
18	0xbcaa5ec2	-0.020797137
19	0x3c7e73c1	0.015530528
20	0x3c906980	0.017628431
21	0xbd0fd813	-0.035118174
22	0xbd148020	-0.036255002
23	0x3be21fc9	0.0069007617
24	0x3cd9636a	0.026536662
25	0xbcceb239	-0.025231468
26	0x3c9ba9c7	0.019001855
27	0xbc56e20e	-0.013115419
28	0x3c950ec0	0.01819551
29	0xbc4e1bb4	-0.012579847
30	0xbce4a753	-0.027911818
31	0x3d407335	0.04698487
32	0x3d29df30	0.041472614
33	0xbbca994f	-0.0061828266
34	0xbb86ad4f	-0.0041100155
35	0x3d287227	0.04112449
36	0xba8088a6	-0.0009806349
37	0xbc506d2f	-0.012721344
38	0xbc2f9c25	-0.01071838
39	0xbd137393	-0.035998892
40	0x3b680e09	0.0035408756
41	0x3c888671	0.01666567
42	0x3cacd618	0.021098182
43	0x3bea55dc	0.0071513485
44	0x3d062be0	0.032756686
45	0xbb976829	-0.004620571
46	0x3c81272b	0.015765747
47	0xbad38726	-0.00161383
48	0xbd4e83ff	-0.05041885
49	0x3d0f8a41	0.03504396
50	0x3d2a0507	0.0415087
51	0xbc22091b	-0.009889866
52	0xbcbeab06	-0.02327491
53	0x3d00f0a6	0.0314795
54	0x3c692d02	0.014231922
55	0x3c4800d3	0.012207228
56	0x3cd28fdc	0.025703363
57	0x3b460c49	0.0030219725
58	0x3cd09052	0.025459442
59	0x3c1131ba	0.008861953
60	0x3cd38dc1	0.02582443
61	0x3d034dea	0.032056727
62	0x3b2ea149	0.0026646426
63	0x3caf5bcb	0.021406075
64	0xbcb6dcb4	-0.022322036
65	0xbc898dcf	-0.016791252
66	0xbd80540c	-0.06266031
67	0xbc00420a	-0.007828245
68	0xbb7e7f00	-0.0038833022
69	0xbc7c0775	-0.015382637
70	0x3b4b5f45	0.0031032127
71	0xbc8fe28f	-0.017564086
72	0xbc1b2157	-0.009468398
73	0x3c9ec430	0.019380659
74	0xbd23b6f7	-0.03996941
75	0x3d694663	0.05695189
76	0xbc38af68	-0.011272289
77	0x3c64a37c	0.013954993
78	0xbcce3ab3	-0.025174474
79	0xbc861084	-0.016365297
80	0x3d137c3b	0.036007147
81	0xbc81a0db	-0.015823772
82	0x3b82f82f	0.003996871
83	0x3d0ac63c	0.033880457
84	0xbd1898fd	-0.037255276
85	0x3bb5ebbe	0.0055517843
86	0x3c5217e5	0.01282308
87	0xbcd1b57d	-0.025599236
88	0x3cbdac21	0.023153367
89	0xbd215e1b	-0.039396387
90	0x3d29a3cb	0.04141597
91	0xbcb7ec02	-0.022451404
92	0xbb09096f	-0.0020910164
93	0xbd386d2b	-0.045025986
94	0xbc11249b	-0.008858825
95	0xbd722347	-0.059115674
96	0x3b9f486e	0.004860929
97	0x3d0d5360	0.03450334
98	0xbd0f4e11	-0.03498656
99	0xbd14fc3b	-0.03637336
100	0x3c4f2629	0.012643375
101	0x3c6796b8	0.014135055
102	0x3b8cb4fe	0.004294037
103	0x3c852e30	0.016257375
104	0x3d3dfb66	0.04638233
105	0xbd00363e	-0.03130173
106	0xb985901d	-0.0002547511
107	0xbd178647	-0.03699329
108	0x3c23b2f2	0.009991394
109	0xbb373fc0	-0.0027961582
110	0x3ba6c649	0.0050895554
111	0xbce5c4ab	-0.02804788
112	0xbc34fa19	-0.011045956
113	0x3bb206d5	0.0054329433
114	0xbb363c29	-0.0027806854
115	0x3d1164e7	0.03549662
116	0x3c6f64aa	0.0146114025
117	0xbb916047	-0.004436526
118	0xbbddf177	-0.0067731696
119	0xbc8bc48d	-0.017061496
120	0xbce521ba	-0.027970184
121	0xbc45d741	-0.012075246
122	0x3cd87339	0.02642213
123	0x3cfbf8e7	0.030758334
124	0x3d18b28d	0.037279654
125	0xbb6b76c7	-0.003592895
126	0x3ce22c95	0.027609149
127	0xbbc6a23d	-0.006061821
128	0x3c84997d	0.01618647
129	0xb91b4f6b	-0.00014811537
130	0x3d130b0d	0.03589921
131	0x3d7a63ed	0.061130453
132	0x3d1365e7	0.035985854
133	0xbc1693ae	-0.009190483
134	0x3c60c967	0.013719893
135	0xbd356a0f	-0.0442906
136	0xbcc9e232	-0.024643991
137	0x3cf8a8d2	0.030353937
138	0x3bc3e72e	0.0059784865
139	0x3aa6a149	0.0012712862
140	0xbd0590ad	-0.032608677
141	0x3c075e3b	0.008262212
142	0x3cb9ecfb	0.022696009
143	0x3c98ad39	0.018637286
144	0x3ae58787	0.0017511704
145	0x3cac15f8	0.02100657
146	0xbd4e2e9d	-0.050337423
147	0xbcab2db1	-0.02089581
148	0x3c409679	0.0117546255
149	0x3b941e18	0.004520189
150	0x3b0fd68e	0.0021947953
151	0x3d0ddc18	0.034633726
152	0xbc32fe13	-0.010924834
153	0xbbfe2f5b	-0.00775711
154	0x3b932de3	0.004491554
155	0xbc476a25	-0.012171303
156	0x3cf1bf0d	0.029510045
157	0xbc87253f	-0.016497253
158	0x3d0c2199	0.03421173
159	0xbcc8e3d9	-0.024522709
160	0xbbb4684f	-0.0055055986
161	0xbc0b4aa4	-0.008501682
162	0xbc4f504f	-0.012653424
163	0x3cc31ec7	0.023818387
164	0xbbd8fb92	-0.0066217864
165	0x3d5fc782	0.054633625
166	0x3c932437	0.017961605
167	0x3b3841fc	0.0028115502
168	0xbb1e4407	-0.0024149434
169	0x3ccecea2	0.025245015
170	0x3ccc2b6b	0.024923047
171	0x3d116f22	0.035506375
172	0x3bda91fd	0.006670235
173	0xbc3321af	-0.010933324
174	0x3ccfcf62	0.025367443
175	0xbd791311	-0.0608092
176	0x3cf478ba	0.029842723
177	0x3d1e4e6d	0.03864901
178	0xbcc0fb6f	-0.023557393
179	0xbcc5ab6d	-0.024129594
180	0x3be3628a	0.006939237
181	0xbc01df76	-0.007926812
182	0xbd0ab2ca	-0.033861913
183	0x3ce51a25	0.027966568
184	0xbd3984d3	-0.045292687
185	0xbd21e4fa	-0.03952501
186	0xbc310d04	-0.010806326
187	0xbb672dd5	-0.003527512
188	0xbc5f8155	-0.013641675
189	0x3b5f4247	0.0034066604
190	0xbc6986e0	-0.014253348
191	0xbb97c00e	-0.004631049
192	0x3a5df358	0.0008466742
193	0xbc84d3fd	-0.016214365
194	0xbd23ac08	-0.039958984
195	0xbc466c6d	-0.012110812
196	0x3c1a3da8	0.009414114
197	0x3d31e989	0.043435607
198	0x3c1e90fb	0.009678121
199	0xbb6608de	-0.00351005
200	0xbb981776	-0.0046414686
201	0x3d5a419c	0.053285226
202	0xbcba49a9	-0.022740202
203	0xbd37050d	-0.04468255
204	0x3c9827cd	0.018573666
205	0xbbecddbe	-0.007228582
206	0x3bd0bb75	0.006370003
207	0x3c66123c	0.014042433
208	0xb807f887	-3.2417967e-05
209	0x3c0df3ca	0.008664081
210	0x3c6dc41a	0.014512086
211	0xbc46d7fb	-0.012136455
212	0xbccff6f6	-0.025386315
213	0xbc45ebd9	-0.012080156
214	0xbc73e282	-0.014885547
215	0x3c8d2e87	0.0172341
216	0x3b866e05	0.004102471
217	0xbcb0f961	-0.021603288
218	0x3c9f0b34	0.019414522
219	0x3d2c4b4c	0.042063996
220	0x3c702024	0.0146561
221	0xbd14f6d2	-0.0363682
222	0x3b79cbfd	0.0038115971
223	0xbba34724	-0.004982846
224	0x3c84c27d	0.01620602
225	0xbcaf5e40	-0.021407247
226	0xbb97ef60	-0.00463669
227	0xbb185efd	-0.0023249977
228	0x3da723b6	0.08161108
229	0x3c5c817d	0.013458607
230	0xbcca09ca	-0.02466287
231	0x3c4be79b	0.012445356
232	0x3c872af4	0.016499974
233	0xbcbc990f	-0.023022203
234	0x3c0a43cb	0.008439015
235	0xb8ac4a54	-8.215444e-05
236	0x3bd2625e	0.0064204177
237	0xbc211491	-0.009831564
238	0xbdaf3ea8	-0.085568726
239	0x3c94f0c9	0.018181222
240	0x3ca668cb	0.020313641
241	0x3d1f056d	0.038823534
242	0xbc61f97e	-0.013792394
243	0xba0947b3	-0.0005236819
244	0xbbfd6e98	-0.007734131
245	0xbc34c0d9	-0.011032307
246	0x3ca29ea8	0.019851044
247	0x3cf0f9b0	0.029415935
248	0xbbd63cad	-0.006537995
249	0xbc04755d	-0.008084622
250	0xbbad33ca	-0.0052857148
251	0xbcaf5b37	-0.0214058
252	0xbb03f8e2	-0.002013736
253	0x3bda1d1c	0.006656302
254	0x3b8ca8a7	0.004292566
255	0x3cf57990	0.029965192

weight f4 [18, 18, 3, 3]
0	0x3be669b7	0.007031645
1	0xbce82f33	-0.028342819
2	0xbc88c9b6	-0.016697746
3	0x3d8ca526	0.06867437
4	0xbca3c5cb	-0.019991776
5	0x3d585384	0.05281402
6	0xbc118eb1	-0.008884118
7	0x3c06e00b	0.008232127
8	0xbb2c527e	-0.0026294286
9	0xbba2f3dd	-0.0049729184
10	0xbcc091ee	-0.023507085
11	0x3c4fff04	0.012695078
12	0x3cbb2945	0.022846827
13	0xbc679f53	-0.014137107
14	0xbd8320e7	-0.0640276
15	0x3c2ce9fd	0.010553834
16	0x3c9355b3	0.0179852
17	0x3cca155d	0.02466839
18	0xbc42a895	-0.011881013
19	0xbcb4b175	-0.022057274
20	0x3cb1e359	0.021714853
21	0xbdbae4bd	-0.091256596
22	0xbc7adb22	-0.015311034
23	0x3a107cf2	0.00055117824
24	0xbd50fda0	-0.051023126
25	0x3c4dc3a7	0.012558854
26	0xbd3c0349	-0.04590157
27	0x3c9cfb78	0.019162878
28	0x3cb49cf9	0.022047507
29	0x3c2ad12b	0.010425846
30	0x3cd240a0	0.025665581
31	0xbcee1c2d	-0.02906617
32	0x3dc54aa3	0.096333764
33	0x3c1ef2a0	0.009701401
34	0x3d2dc082	0.042419918
35	0xbccde2dc	-0.025132589
36	0x3b33a1e1	0.002740972
37	0xbd391313	-0.045184206
38	0xbc3ba014	-0.01145174
39	0xbc04354d	-0.0080693485
40	0x3c0d0199	0.008606338
41	0x3d783b47	0.060603406
42	0xbc8684cb	-0.016420742
43	0xbcdd18b9	-0.026989328
44	0xbce5c230	-0.028046697
45	0x3b18d350	0.0023319311
46	0xbcf09414	-0.029367484
47	0xbcd83f80	-0.026397467
48	0xbc3eb109	-0.011638888
49	0x3cd17061	0.025566282
50	0xbc3984e2	-0.011323186
51	0x3c8c9481	0.017160656
52	0x3d195ea7	0.037443783
53	0xbd9e162f	-0.07719075
54	0x3be885d7	0.007096033
55	0x3b08e15e	0.0020886282
56	0xbc34230d	-0.010994685
57	0xbcb8107a	-0.022468794
58	0xbc789926	-0.015173232
59	0x3d4860c4	0.048920408
60	0x3b632dc5	0.0034664732
61	0x3c92788a	0.017879743
62	0xbc9613d2	-0.018319998
63	0x3cc345d0	0.023837
64	0x3d1b45e7	0.03790846
65	0x3c8c3b59	0.017118143
66	0xbd88bc80	-0.066765785
67	0xbd8e4c2a	-0.06948121
68	0xbc2bf49b	-0.01049533
69	0x3ae7f0be	0.0017695648
70	0xbcc95cea	-0.024580438
71	0xbbc66742	-0.0060547898
72	0x3b85c580	0.0040823817
73	0xbc892bab	-0.016744455
74	0xbbd7df64	-0.0065879095
75	0x3c3a033e	0.011353312
76	0x3b3bfab7	0.0028683373
77	0x3d2fc57d	0.04291295
78	0x3c125dfe	0.008933542
79	0x3d3e927e	0.046526425
80	0x3ca1597b	0.019695988
81	0x3cf7754f	0.030207304
82	0x3cc93b69	0.024564462
83	0x3c404438	0.011735015
84	0xbda319da	-0.07963915
85	0xbd2484e3	-0.040165793
86	0xbd5b8050	-0.053589165
87	0x3c84a411	0.016191514
88	0x3bd9ef01	0.006650806
89	0x3c9a74d2	0.018854532
90	0xbc4c76ee	-0.012479527
91	0x3c202b6d	0.0097759785
92	0xbb682b4a	-0.0035426193
93	0x3d60134e	0.05470591
94	0x3c04c8b8	0.008104496
95	0x3d4c4cc6	0.049877904
96	0xbce13a1b	-0.027493527
97	0x3cc45a46	0.023968827
98	0xbbbecbe4	-0.0058226455
99	0xbc696070	-0.014244184
100	0x3b93be7e	0.0045087924
101	0xbd003540	-0.031300783
102	0x3d2b1faa	0.041778244
103	0x3c778f6d	0.015109879
104	0x3c299200	0.0103497505
105	0x3cedd0db	0.029030254
106	0x3bc3fc32	0.0059809918
107	0x3c261c2b	0.010138552
108	0x3bf2c6d3	0.0074089556
109	0x3d0ab746	0.03386619
110	0x3c381142	0.011234583
111	0xbd1b7b30	-0.037959278
112	0xbc88221e	-0.01661783
113	0x3d01a8be	0.031655066
114	0xba8010c6	-0.0009770624
115	0x3c34f927	0.011045731
116	0x3d1e69ca	0.038675107
117	0x3d25970d	0.040427256
118	0x3c98b00a	0.01863863
119	0x3cf07946	0.029354703
120	0x3bc7cab6	0.006097163
121	0x3d3bb06c	0.045822546
122	0x3c9c6cfc	0.019094937
123	0x3c56b033	0.013103533
124	0xba8fea57	-0.0010979873
125	0x3cbe7dd0	0.023253351
126	0x3c81f733	0.015864944
127	0xbc0bff1b	-0.008544709
128	0xbc5c181c	-0.0134334825
129	0x3d132a63	0.035929095
130	0x3d0ebe61	0.03484953
131	0xbcd67bb3	-0.026182031
132	0x3b96d12a	0.004602571
133	0x3bd7dbee	0.006587497
134	0xbcc5d7f0	-0.024150819
135	0x3cf39b2e	0.029737081
136	0x3c669c85	0.014075403
137	0x3ca55df9	0.020186411
138	0x3b5e4aa0	0.0033918992
139	0xbda32d18	-0.07967585
140	0x3b70d097	0.0036745423
141	0x3cfd098a	0.030888338
142	0xbb07c5a6	-0.0020717173
143	0x3cf61fe6	0.030044507
144	0x3d51f7de	0.051261775
145	0xbd19df45	-0.037566442
146	0xbc3422d3	-0.010994631
147	0xbca873f0	-0.020563096
148	0x3d689944	0.05678679
149	0x3c5324af	0.012887164
150	0xbc7263de	-0.014794318
151	0x3c8a142f	0.016855327
152	0xbd4cc6c6	-0.049994253
153	0x3d374c86	0.044750713
154	0x3ce5dee4	0.028060384
155	0xbc8bae8b	-0.017051002
156	0x3dd59614	0.10429016
157	0x3d967db9	0.073481984
158	0x3d8a433a	0.06751104
159	0xbc3b6030	-0.011436507
160	0xbc8bf6dd	-0.017085487
161	0x3cfb8402	0.030702595
162	0xbc86e68c	-0.016467355
163	0x3c079d41	0.008277238
164	0xbc9ba337	-0.018998725
165	0x3b32ce85	0.002728374
166	0xbc18c8c3	-0.009325209
167	0xbc903312	-0.017602477
168	0xbc55a0c6	-0.01303882
169	0x3bf62081	0.007511199
170	0x3b6bb4f4	0.003596601
171	0xbc3a6cae	-0.01137845
172	0x3bfc2783	0.00769514
173	0xbb2efa12	-0.0026699346
174	0x3d0e777c	0.034781918
175	0xbc8979f4	-0.016781785
176	0x3c35c58f	0.011094465
177	0xbceb20b4	-0.028702118
178	0x3b40c8dc	0.0029416597
179	0x3a409185	0.0007345903
180	0xbb7817f0	-0.0037856065
181	0x3b8e8d55	0.004350344
182	0xbb8a2893	-0.0042162626
183	0x3c873981	0.016506912
184	0xbd6f8807	-0.058479335
185	0xbb1de768	-0.0024094228
186	0x3bb9b417	0.0056672203
187	0x3b716042	0.0036831056
188	0x3d0d2801	0.03446198
189	0xbcbe6f2e	-0.023246374
190	0xbcc930f2	-0.024559472
191	0xbd03f436	-0.03221532
192	0xbc36edd8	-0.011165105
193	0xbd2d6e60	-0.04234159
194	0xbcfce81e	-0.0308724
195	0x3c23ed9c	0.010005381
196	0x3b8146c0	0.0039452016
197	0xbb82dd06	-0.003993633
198	0x3cc86719	0.024463223
199	0xb9c41d94	-0.0003740607
200	0x3b27e2b6	0.0025617308
201	0xbd1011e2	-0.035173304
202	0xbc0435ec	-0.008069497
203	0xbda8bf22	-0.08239581
204	0x3cded3ee	0.027200665
205	0x3a8ba855	0.0010655025
206	0x3ba899be	0.0051452806
207	0x3c6ac023	0.0143280355
208	0x3d1009f1	0.03516573
209	0x3b480718	0.0030521806
210	0xbd3c0196	-0.04589995
211	0x3b84b5a2	0.0040499726
212	0x3cdee5ca	0.027209181
213	0x3c2813a0	0.010258585
214	0x3c5be54b	0.013421367
215	0x3c00d8a0	0.007864147
216	0xbcf51781	-0.029918434
217	0xbcc23c54	-0.023710407
218	0xbc7fae25	-0.015605484
219	0xbc8d4e71	-0.017249318
220	0x3d509f48	0.050933152
221	0x3c9f8581	0.01947284
222	0x3c0e7243	0.008694234
223	0x3b559c29	0.00325943
224	0xbbf13a81	-0.0073617105
225	0xbc1b0e5f	-0.009463876
226	0xbc428ce1	-0.011874408
227	0xbbcf6da6	-0.00633021
228	0x3cf37e0b	0.029723188
229	0x3c9178f2	0.017757867
230	0xbbb0144a	-0.0053735124
231	0x3b8c813f	0.0042878683
232	0xba4ead6e	-0.00078841194
233	0xbc3929bd	-0.011301455
234	0x3c25e259	0.010124766
235	0xbc24a882	-0.010049941
236	0x3d00609b	0.03134213
237	0xbd6aaf13	-0.05729587
238	0x3c9017be	0.017589446
239	0xba463f7f	-0.0007562562
240	0x3c784095	0.015152116
241	0x3c89f237	0.01683913
242	0xbc70e4d8	-0.014702998
243	0xba5fe9d8	-0.00085416203
244	0xbd0d140f	-0.034442957
245	0xbabdf2f8	-0.0014491966
246	0x3d6ea0ff	0.058259007
247	0x3d38ca64	0.04511489
248	0x3d36a267	0.044588473
249	0xbd2baa2b	-0.04191033
250	0xbc7a4be7	-0.015276886
251	0xbcf3ca49	-0.029759543
252	0xbcabca18	-0.02097039
253	0x3bb037ef	0.0053777616
254	0xbd12b80d	-0.035820056
255	0x3caff6e0	0.021480024

weight f4 [36, 18, 3, 3]
0	0xbbe23578	-0.0069033466
1	0x3c4d906a	0.012546638
2	0x3c3b482a	0.0114307795
3	0x3bc10b74	0.005891258
4	0xba1e71e8	-0.0006044195
5	0xbb12c0e4	-0.0022392804
6	0x3bb759cb	0.005595421
7	0x3c54697e	0.012964604
8	0xbb5c24f9	-0.0033591373
9	0x3cee8043	0.029113894
10	0x3be5d6a2	0.0070141116
11	0xbbafad70	-0.0053612515
12	0xbd45da90	-0.04830414
13	0xbcbe3d3d	-0.02322256
14	0x3c9b0a40	0.018925786
15	0x3c8d6c2d	0.017263496
16	0x3ba4960e	0.0050227707
17	0x3cffcb5c	0.031224899
18	0x3b7ed213	0.0038882538
19	0x3ca7c3f3	0.020479178
20	0x3d644d19	0.05573759
21	0xbd5210d7	-0.05128559
22	0xbd51becc	-0.05120735
23	0x3c4a4de5	0.012347673
24	0x3c512e89	0.0127674425
25	0xbb6b31d5	-0.0035887857
26	0xbc892d66	-0.01674528
27	0x3c1b2cfd	0.009471175
28	0xbb6403e6	-0.0034792363
29	0x3bdedb85	0.006801071
30	0x3c5e668b	0.013574253
31	0x3c929588	0.017893568
32	0x3ca4d1c1	0.02011955
33	0xbb614941	-0.0034375938
34	0xbc6bba69	-0.014387705
35	0x3a08610d	0.000520245
36	0xbc0808b9	-0.008302861
37	0xbd21ec6b	-0.039532106
38	0x3ba2ab0f	0.0049642394
39	0xbb3ae081	-0.0028515162
40	0xbb13bb4d	-0.002254206
41	0x3c91fa63	0.017819589
42	0x3ce371eb	0.027764281
43	0xbccc5745	-0.024943957
44	0x3b65a6cf	0.0035042053
45	0x3d029669	0.031881724
46	0xbc7fb912	-0.015608089
47	0x3ce21006	0.027595531
48	0xbaeaccea	-0.0017913852
49	0xbc84895b	-0.016178777
50	0x3c0edfe6	0.008720374
51	0x3c221455	0.009892543
52	0xbb1abf2d	-0.0023612485
53	0x3ca96194	0.020676412
54	0xbc7b418c	-0.015335452
55	0xbb8c92f4	-0.004289979
56	0x3c9d4370	0.019197196
57	0x3d194e6f	0.037428316
58	0xbcf92005	-0.030410776
59	0xbc4158b9	-0.011800938
60	0xbb9a5e77	-0.004710968
61	0x3cb6923e	0.02228653
62	0x3d37fe7b	0.044920426
63	0x39dcc43d	0.0004210788
64	0x3b8fd25a	0.0043890895
65	0xbc04b0f2	-0.008098828
66	0xbbc28349	-0.0059360606
67	0x3da2aab6	0.07942717
68	0x3d95b80c	0.07310495
69	0xbc2eefcd	-0.01067729
70	0x3bac0cf8	0.0052505694
71	0xbc8d709e	-0.017265614
72	0x3d467e62	0.04846037
73	0xbc4e75fd	-0.012601373
74	0x3beedae9	0.0072892797
75	0x3be7aece	0.007070399
76	0xbd6853c5	-0.056720514
77	0x3d3cf243	0.046129476
78	0xbd4967d2	-0.049171276
79	0xbbf4174a	-0.0074490653
80	0xbcee084e	-0.029056694
81	0xba57e6e1	-0.0008236003
82	0x3c479d62	0.012183519
83	0x3c451766	0.012029504
84	0x3b36a66e	0.0027870196
85	0xbcc2b2b9	-0.023766862
86	0x3b3febe5	0.0029284891
87	0x3d0443a7	0.03229108
88	0x3bfbf1c6	0.0076887337
89	0xbd08874e	-0.03333216
90	0xbd05eb9d	-0.0326954
91	0xbbfab3f7	-0.007650848
92	0xbc861367	-0.016366674
93	0x3d875029	0.06607086
94	0x3ccb0559	0.024782823
95	0xbc64eb94	-0.013972182
96	0x3c8688db	0.01642268
97	0xbcff2662	-0.031146232
98	0x3c336c04	0.010951046
99	0xbcb8cc65	-0.0225584
100	0x3b793f01	0.0038031938
101	0x3c82338b	0.015893718
102	0x3d39a7f3	0.045326184
103	0x3c72959c	0.0148061775
104	0xbd5cf818	-0.05394754
105	0xbbe13815	-0.0068731406
106	0x3bfc6e4f	0.0077035795
107	0x3c8e680a	0.017383594
108	0xbcecdd00	-0.028913975
109	0x3c33641c	0.010949161
110	0x3b5d1549	0.003373461
111	0xbd04b16c	-0.032395765
112	0xbd24dc18	-0.04024896
113	0xbd47d329	-0.048785362
114	0x3d118027	0.035522606
115	0xbd09aca4	-0.03361191
116	0x3cc7c00e	0.024383571
117	0xbb656070	-0.0035000108
118	0xbcb1f5e6	-0.021723699
119	0xbbac8cb4	-0.0052657966
120	0xbcc85e9a	-0.024459172
121	0xbcb6fecd	-0.022338295
122	0x3d2f4cfa	0.04279802
123	0xbbc196b4	-0.005907858
124	0x3c263776	0.010145059
125	0xbbf17ed9	-0.0073698577
126	0xbcd94266	-0.026520919
127	0x3c5ade5c	0.013358679
128	0x39c52dc9	0.0003760888
129	0xbc3a5d48	-0.011374779
130	0xbd803de0	-0.06261802
131	0xbdcca291	-0.099919446
132	0x3ccb10c7	0.024788273
133	0x3c4f5a9b	0.012655879
134	0x3b948eab	0.004533609
135	0xbbb68d8e	-0.005571074
136	0x3bd31ee9	0.0064428938
137	0x3cb32562	0.021868411
138	0xbc2613f9	-0.010136598
139	0x3d9b3f3f	0.075804226
140	0x3db3e213	0.087833546
141	0xbc595fc6	-0.013267463
142	0xbc24e2ab	-0.0100638075
143	0x3a8956a2	0.0010478089
144	0x3d38c2ca	0.04510764
145	0x3c5cc2e7	0.013474203
146	0x3a72f049	0.00092673727
147	0x3bfcf4f5	0.007719631
148	0x3c9c285f	0.01906222
149	0x3cd0a578	0.025469527
150	0xbbf8bae3	-0.007590638
151	0x3c4bcee9	0.012439468
152	0xbd36d678	-0.044638127
153	0x3bdea7ee	0.006794921
154	0x3c570d82	0.013125779
155	0xbc336eb4	-0.010951687
156	0x3c96c459	0.018404173
157	0x3c0deecb	0.00866289
158	0xbd06e30b	-0.03293137
159	0xbcfbc4a2	-0.03073341
160	0x3a6ec2c5	0.00091080024
161	0xbc6ccbfb	-0.01445293
162	0xbc01bdc1	-0.007918776
163	0xbc48d1b8	-0.012257032
164	0x3ce2624f	0.027634768
165	0x3d6abbe4	0.057308093
166	0x3ccc0084	0.02490259
167	0xbc8f6f9d	-0.017509276
168	0xbd447eb8	-0.04797241
169	0x3cff6af7	0.031178934
170	0xbadd66ca	-0.0016891595
171	0x3c9ac2a6	0.018891644
172	0xbb3e446f	-0.0029032489
173	0x39dc0519	0.00041965468
174	0xbc6d629b	-0.014488841
175	0x3ce7624e	0.028245118
176	0x3d6a3fbf	0.0571897
177	0x3c5a4338	0.01332169
178	0xbc3e986e	-0.011633022
179	0xba328419	-0.0006809845
180	0x3c90fe4d	0.017699385
181	0xbc511d5d	-0.012763348
182	0xbbcdc875	-0.00628
183	0x3d83e962	0.064409986
184	0x3d760ce2	0.06007088
185	0x3dc0a127	0.09405737
186	0xbbfc030c	-0.007690793
187	0x3a20369a	0.0006111652
188	0x3c431eb0	0.011909172
189	0x3bb7d5c6	0.0056102006
190	0x3a9d111e	0.0011983251
191	0xbd3195d4	-0.043355778
192	0xbc2913cf	-0.010319664
193	0xbb031627	-0.0020002217
194	0x3aecdcfb	0.0018071228
195	0x3cc96e89	0.02458884
196	0xbc495600	-0.01228857
197	0x3bdc4278	0.006721791
198	0x3d30eefe	0.04319667
199	0x3b8e75cb	0.004347538
200	0x3bc2c9bd	0.0059444592
201	0xbce1c581	-0.027559998
202	0xbd19150f	-0.0373736
203	0x3c4a4926	0.0123465415
204	0x3c32bccb	0.01090927
205	0x3cb21704	0.02173949
206	0x3c3a3d1e	0.011367111
207	0x3c178528	0.0092480555
208	0x398418b7	0.00025195416
209	0xbc03eddf	-0.008052318
210	0x3c85806b	0.016296586
211	0x3d3cfeb9	0.04614136
212	0x3d8115ff	0.063030235
213	0xbbe800cb	-0.0070801727
214	0xbc68c27b	-0.014206524
215	0xbca8ed85	-0.02062107
216	0xbc843272	-0.016137335
217	0x3b6d12aa	0.0036174455
218	0xbc79656f	-0.015221938
219	0xbbaf3e90	-0.005348034
220	0x3bfa91c4	0.007646771
221	0x3ce3576b	0.027751645
222	0x3d176cf6	0.036969148
223	0xbc73cf2c	-0.014880937
224	0x3cb0965c	0.021556072
225	0x3c8533bc	0.01626002
226	0x3ca638cf	0.02029076
227	0x3c8373dd	0.016046459
228	0xbcb095ba	-0.02155577
229	0xbd7cfc39	-0.061763976
230	0xbd2211ac	-0.039567634
231	0xbc811475	-0.015756825
232	0xbcf701a0	-0.030152142
233	0x3b5d4941	0.0033765587
234	0xbc91829a	-0.017762471
235	0xbcf85ba2	-0.030317131
236	0x3d0fc079	0.035095666
237	0x3bda4b24	0.0066617895
238	0x3ce73794	0.028224744
239	0x3d49b85b	0.04924808
240	0x3bcf07bc	0.0063180607
241	0x3c407df2	0.011748778
242	0xbc1b5552	-0.009480791
243	0xbcabc3d4	-0.020967402
244	0xbb33e15d	-0.002744756
245	0xbd2afcd4	-0.041745022
246	0xbd083bbd	-0.033260096
247	0xbd3682c5	-0.044558305
248	0x3cbca652	0.023028526
249	0x3c80a9dd	0.015705997
250	0xbb11fe76	-0.0022276915
251	0x3c1e7bda	0.009673083
252	0xbc93e222	-0.018052164
253	0xbcbf102d	-0.023323143
254	0x3c5be699	0.013421678
255	0xbbe1ab49	-0.006886874

weight f4 [36, 36, 3, 3]
0	0x3b8f9ac8	0.004382465
1	0x3c2f0db9	0.010684424
2	0x3c086dc6	0.008326953
3	0x3dcdad65	0.10042838
4	0x3d567e74	0.05236669
5	0x3d3f8bbe	0.046764128
6	0xbbb70f66	-0.0055865524
7	0xbcb82c75	-0.022482136
8	0xbd036baf	-0.032085117
9	0x3bb5f541	0.005552918
10	0xbce906be	-0.028445598
11	0xbc94290e	-0.018085983
12	0xbb11bb67	-0.0022236945
13	0x3d297bd5	0.04137786
14	0x3d652424	0.05594267
15	0x3c5bda80	0.013418794
16	0x3c5b664e	0.013391091
17	0xbd25e220	-0.040498853
18	0x3c1d376d	0.009595734
19	0xbd484e45	-0.04890277
20	0x3b4666cb	0.0030273672
21	0xbc6b69af	-0.014368459
22	0x3d143eaf	0.036192592
23	0x3cdf5ae1	0.027265014
24	0x3d51f8dc	0.05126272
25	0xbcd463a4	-0.025926419
26	0x3b476486	0.0030424907
27	0xbd1fbf39	-0.039000724
28	0x3c2c858f	0.01052989
29	0x3c6492c9	0.013951012
30	0xbc8b319e	-0.016991433
31	0xbaaeb6f4	-0.0013329671
32	0x3d5a9399	0.053363416
33	0xbb86c46f	-0.004112772
34	0x3d53334a	0.051562585
35	0x3c547557	0.012967429
36	0xbb937b92	-0.0045008147
37	0xbc8e67e7	-0.017383529
38	0x3c728399	0.014801883
39	0x3d26678c	0.040626094
40	0xbcf636f1	-0.030055495
41	0xbd684777	-0.05670878
42	0xbcd34d32	-0.025793646
43	0xbd1cae30	-0.038252056
44	0xbcc5372b	-0.024074158
45	0x3ba8732f	0.005140684
46	0x3bfc27a5	0.0076951557
47	0x3cc0d12e	0.023537245
48	0x3cd4bc0f	0.02596858
49	0x3d599a0b	0.053125422
50	0x3cc1de11	0.02366546
51	0xbbaaac0e	-0.005208499
52	0x3c9a725a	0.018853355
53	0x3ce2d8f9	0.027691351
54	0xbb86ba20	-0.0041115433
55	0x3b74d9f4	0.0037361355
56	0x3cdad257	0.026711626
57	0x3b87e05c	0.004146619
58	0x3c840a82	0.016118292
59	0x3d16df3d	0.03683399
60	0xbb1c2b0a	-0.0023829364
61	0xbc3ebb9c	-0.011641409
62	0x3cecf8b0	0.028927177
63	0xbd27b678	-0.0409455
64	0x3c2bd74e	0.010488344
65	0x3c57acc2	0.013163747
66	0x3d322558	0.043492645
67	0x3d8f4217	0.069950275
68	0x3d19b60d	0.037527133
69	0x3b8cea8b	0.0043004206
70	0xba08287d	-0.00051940215
71	0xbc71195d	-0.01471552
72	0xbc0d0423	-0.008606943
73	0x3c67b25c	0.014141645
74	0xbce26ff3	-0.027641272
75	0x3d6aa03c	0.057281718
76	0x3d09da57	0.03365549
77	0xbc878a10	-0.016545326
78	0x3c45007b	0.01202404
79	0x3bd2a514	0.0064283703
80	0x3b5dacab	0.0033824842
81	0x3c9e67e2	0.019336645
82	0xbc874a05	-0.016514787
83	0xbbb9e085	-0.0056725168
84	0xbd480f2d	-0.048842598
85	0x3d8094eb	0.06278404
86	0x3d89742f	0.067116134
87	0xbc371305	-0.011173968
88	0xbc73b62c	-0.014874976
89	0xbbd174c9	-0.0063920957
90	0xbcb2ee61	-0.021842184
91	0xbc159a4b	-0.009131025
92	0x3cb3ed9b	0.021963885
93	0x3d255d88	0.0403724
94	0x3d20dbd3	0.03927214
95	0x3c356787	0.011072046
96	0xbd3bc187	-0.04583886
97	0x3d0d9fbe	0.03457617
98	0xbc009204	-0.007847313
99	0xbcb61d73	-0.02223084
100	0xbca59f58	-0.020217583
101	0x3c50763e	0.012723504
102	0xbcbb4b04	-0.022862919
103	0x3b747920	0.0037303641
104	0x3cefa486	0.029253256
105	0xbc2e0580	-0.0106214285
106	0xbc9076c2	-0.017634753
107	0xbab7c410	-0.0014020223
108	0x3c01b32d	0.007916254
109	0xbc35884d	-0.01107986
110	0x3cedf97d	0.02904963
111	0x3c88f833	0.016719913
112	0xbb42a58b	-0.0029700722
113	0x3c7b12a7	0.015324271
114	0x3bf1cb00	0.007378936
115	0x3b7136aa	0.0036806264
116	0x3c6b196e	0.014349325
117	0xbb149223	-0.0022670112
118	0x3c908703	0.017642504
119	0x3c38f47c	0.011288758
120	0xbd3d9ca4	-0.046291962
121	0x3d6ec2ee	0.05829137
122	0x3c39f167	0.011349059
123	0xbc2a6d12	-0.010401981
124	0xbcf9b36a	-0.03048106
125	0xbaa23bbc	-0.0012377421
126	0xbcd07441	-0.02544606
127	0xbaeef772	-0.0018231703
128	0xbce609d5	-0.02808086
129	0xbcd53f44	-0.026031144
130	0x3c198912	0.009371059
131	0xbcee02fc	-0.029054157
132	0xbc3f5755	-0.011678536
133	0x3c026b4f	0.007960155
134	0xbc94c9cc	-0.01816263
135	0xbb6c29d8	-0.0036035683
136	0x3cd6d8a1	0.026226344
137	0xbc0e5823	-0.008688006
138	0xba079bf8	-0.00051730825
139	0xba523898	-0.00080192974
140	0xbcbe9720	-0.023265421
141	0xbc22fd6f	-0.009948119
142	0xbab54f55	-0.0013832847
143	0x3ccccffc	0.025001518
144	0xbb4b5012	-0.0031023067
145	0xbbd06bce	-0.0063605076
146	0x3cfc8901	0.030827047
147	0xbd285393	-0.041095328
148	0xb948200c	-0.00019085425
149	0xbd344166	-0.04400768
150	0xbbaf1df0	-0.005344145
151	0x3a2f1fe4	0.0006680472
152	0x3d0cb3e3	0.03435124
153	0xbc880597	-0.016604228
154	0xbcdf9145	-0.02729095
155	0xbbcd42fe	-0.0062640896
156	0x3b05854a	0.0020373636
157	0x3d5edbf7	0.054408994
158	0x3d8e0d2c	0.06936106
159	0xbd107586	-0.03526833
160	0x3b835c72	0.004008823
161	0x3c5b7e0f	0.013396754
162	0x3d33b242	0.04387117
163	0xbaff01f8	-0.0019455543
164	0x39860f65	0.00025569941
165	0x3cc4ffe2	0.024047796
166	0x3d83b337	0.06430667
167	0x3d724f2f	0.059157547
168	0xbbbbe612	-0.0057342136
169	0xbc44ecfd	-0.012019393
170	0xbc512a0f	-0.012766375
171	0xbd269077	-0.040665116
172	0x3ca26cb6	0.019827228
173	0xba46c486	-0.0007582385
174	0x3daf2ce0	0.08553481
175	0x3dc767ff	0.097366326
176	0x3d01824c	0.0316184
177	0x3b80f9f4	0.0039360467
178	0x3cd5e789	0.026111381
179	0x3c95bd8b	0.018278858
180	0xbc3362f3	-0.010948884
181	0xba0b249e	-0.00053078856
182	0x3d05fbed	0.03271096
183	0x3caa3797	0.02077846
184	0x3b3f2079	0.0029163642
185	0x3c1d6a36	0.009607842
186	0xbc227c21	-0.00991729
187	0xbd2719b8	-0.04079601
188	0x3a3138fd	0.0006760506
189	0x3c1070b6	0.008815935
190	0xbba17be6	-0.0049281
191	0xbbc74922	-0.006081716
192	0xbb7411e3	-0.0037242107
193	0xbd4abd8b	-0.04949717
194	0xbd148eaf	-0.036268886
195	0xbc914c6a	-0.017736632
196	0x3ac66426	0.0015136048
197	0xbc769975	-0.015051235
198	0xbcf55df7	-0.029952032
199	0x3c7a89a2	0.015291603
200	0xbd01748c	-0.03160529
201	0x3d405c15	0.046962816
202	0xbcd82cb2	-0.0263885
203	0xbbe277c9	-0.006911252
204	0xbc27c639	-0.010240131
205	0x3ba2730f	0.0049575637
206	0x3c1f72c7	0.009731955
207	0xbc334c85	-0.010943537
208	0xbc7298af	-0.01480691
209	0xbb6f3aae	-0.0036503482
210	0xbd36454b	-0.044499677
211	0x3ae534ce	0.001748705
212	0x3bcfa866	0.0063372133
213	0xbaa1e1d6	-0.001235063
214	0x3c37f070	0.011226758
215	0x380043e9	3.0580824e-05
216	0xbc018f73	-0.007907736
217	0x3cb0eff3	0.021598792
218	0x3c969ffe	0.018386837
219	0x3c87d670	0.016581744
220	0x3d7a0cef	0.06104749
221	0xbc96b009	-0.018394487
222	0x3b9f4f58	0.0048617534
223	0x3d0595cf	0.03261357
224	0x3b32bcf5	0.0027273272
225	0xbd106614	-0.0352536
226	0x3c88aad5	0.016683022
227	0x3c688d4e	0.014193846
228	0x3c4accd8	0.01237794
229	0xbc7dce60	-0.015491098
230	0xbd9e4c24	-0.077293664
231	0xbbe05c90	-0.006846972
232	0x3d5b8226	0.053590916
233	0x3bdb3a44	0.0066902954
234	0xbcbd233d	-0.023088092
235	0x3c05b516	0.00816085
236	0xbc71268c	-0.014718663
237	0xbd3bb34b	-0.045825284
238	0x3c8b0120	0.01696831
239	0x3c200ce7	0.009768701
240	0x3cf9e754	0.030505814
241	0xbd19fff1	-0.0375976
242	0x3bfc1f0f	0.007694132
243	0xbc550497	-0.013001583
244	0xbc431c55	-0.01190861
245	0xbd086e24	-0.033308163
246	0x3d0f0af8	0.03492257
247	0xbbc25653	-0.005930701
248	0x3bf9ff72	0.0076293284
249	0x3bd31142	0.0064412663
250	0x3cb52d24	0.022116251
251	0x3ac49779	0.0014998756
252	0xbc027c22	-0.007964166
253	0x3b34c918	0.0027585682
254	0x3c73a7bc	0.014871534
255	0x3b875002	0.0041294107

weight f4 [72, 36, 3, 3]
0	0xbc7be059	-0.015373313
1	0x3d010ed5	0.031508286
2	0xbc64bb2f	-0.013960644
3	0x3d77b2d2	0.06047327
4	0x3d334fcd	0.043777276
5	0xbce102ed	-0.027467215
6	0xbcd9913d	-0.026558513
7	0x3b26a7f2	0.0025429693
8	0xbb8135fb	-0.0039432026
9	0x3ca0eff6	0.019645672
10	0xbc5c09f0	-0.013430104
11	0xbd1dc4c7	-0.03851774
12	0xbd1dda32	-0.038538165
13	0x3ddc6278	0.10760969
14	0x3de481f5	0.111576
15	0x3cd39f9c	0.025832944
16	0xbc9931ab	-0.018700441
17	0x3d12053f	0.035649534
18	0xbc5cf4aa	-0.013486067
19	0xbd1f363c	-0.03887008
20	0xbb8f7f60	-0.004379198
21	0xbda43c4a	-0.08019312
22	0xbd1a7f3a	-0.03771899
23	0xbce3ec62	-0.027822677
24	0xbd30fc2a	-0.043209232
25	0x3cc3e794	0.023914136
26	0x3d077a27	0.033075478
27	0xbc5cf5fb	-0.013486381
28	0x3b934620	0.0044944435
29	0xbaf47462	-0.0018650407
30	0x3c8e894a	0.017399449
31	0xbd23188e	-0.03981834
32	0x3cfce531	0.030871006
33	0x3c7af84e	0.0153179895
34	0x3b999d40	0.004687935
35	0x396a7095	0.00022357919
36	0xba926e4f	-0.001117179
37	0xbc9871de	-0.018608984
38	0xbc20a479	-0.009804838
39	0xbccd699f	-0.025074778
40	0xbda3a015	-0.079895176
41	0xbd8f4d6f	-0.06997191
42	0x3c952ec6	0.01821078
43	0xbb94ed54	-0.0045448933
44	0x3d0a34d2	0.03374178
45	0x3a14e0cc	0.00056792493
46	0xbb9e6b40	-0.0048345625
47	0xbc1d9086	-0.009616977
48	0xbd26da83	-0.040735733
49	0x3b8bbbcf	0.004264332
50	0xbd4e6416	-0.05038842
51	0xbb256aa1	-0.0025240558
52	0xbc85ad17	-0.016317887
53	0x3c81ee46	0.015860688
54	0xbc13a181	-0.0090106735
55	0xbc9bff12	-0.019042525
56	0xbcc08e50	-0.02350536
57	0x3c9312c2	0.01795328
58	0xba7f194c	-0.00097312476
59	0x3c78dc1e	0.015189199
60	0xbca2da6d	-0.019879544
61	0x3be3066b	0.0069282553
62	0x3b418dc5	0.0029533964
63	0x3b24ee0a	0.0025166296
64	0xbc296b22	-0.010340484
65	0x3ba66a74	0.005078608
66	0xbc3fd791	-0.01170911
67	0xbcb1d56f	-0.021708218
68	0xbca40a97	-0.02002458
69	0x3b403a2d	0.002933155
70	0xbc063a1e	-0.008192567
71	0x3bb8c8d3	0.0056391745
72	0x3cecb03c	0.028892629
73	0x3a690733	0.00088893174
74	0xbbf05e8a	-0.0073354887
75	0x3d84b89e	0.064805254
76	0x3d11d5fc	0.035604462
77	0x3d1a056c	0.037602827
78	0x3d15bc01	0.036556248
79	0xbba065ef	-0.004894964
80	0x3bc95822	0.0061445395
81	0xba86a4b4	-0.0010272474
82	0x3b0b7192	0.002127741
83	0x3c8a645f	0.016893564
84	0x3d829611	0.06376279
85	0x3d42c306	0.04754927
86	0xbcc398bc	-0.02387654
87	0x3c276b49	0.01021845
88	0x3ac43407	0.0014969119
89	0xbbcc0747	-0.0062264535
90	0x3bb4312f	0.005499027
91	0x3d029b23	0.03188623
92	0x3cdff218	0.027337119
93	0xbc424bc7	-0.011858887
94	0x3ce19db4	0.027541019
95	0xbd524b37	-0.05134126
96	0x3ab301b0	0.0013657119
97	0xbc44f000	-0.012020111
98	0x3ad9ab0a	0.001660676
99	0x3bad965d	0.0052974657
100	0xbc58071d	-0.01318529
101	0xbb8e1828	-0.0043363757
102	0xbcfa4631	-0.030551048
103	0xbca008ef	-0.01953551
104	0xbda8ca6b	-0.08241733
105	0xbd543e93	-0.051817488
106	0xbc85f3f2	-0.016351674
107	0xbc176570	-0.009240493
108	0xbd16d689	-0.03682569
109	0xbc697ec2	-0.014251413
110	0xba889400	-0.0010420084
111	0xbd4f52dd	-0.050616134
112	0x3d0d8d79	0.034558747
113	0xbcfaf22c	-0.030633055
114	0x3cb24e39	0.021765815
115	0x38d7d2f9	0.000102912956
116	0x3caac9e1	0.020848216
117	0x3cdf61ea	0.027268369
118	0xbbb35a8b	-0.00547344
119	0xbc188d55	-0.00931104
120	0xbb6dfc24	-0.0036313618
121	0xbcb89550	-0.022532135
122	0x3ba7361b	0.0051028854
123	0xb9a7ac65	-0.00031981166
124	0x3c039f4d	0.008033586
125	0x3c6e0fd8	0.014530145
126	0x3c442d82	0.0119737405
127	0x3b2f41b7	0.002674205
128	0xbbf8999e	-0.007586672
129	0xbcf42e91	-0.02980736
130	0x3d3adeb6	0.04562255
131	0x3cde222a	0.0271159
132	0xb9fee17c	-0.00048614654
133	0x3c93b576	0.018030863
134	0xbc4ab7eb	-0.012372951
135	0x3c850a12	0.016240153
136	0x3b873aa2	0.0041268626
137	0xbc78f289	-0.015194544
138	0x3ae459ee	0.0017421821
139	0xbd184d87	-0.03718331
140	0xbc477b6e	-0.012175424
141	0x38126382	3.4901786e-05
142	0xbb43a78b	-0.0029854502
143	0x3c8ceccf	0.017202763
144	0xbc668d72	-0.014071809
145	0xbaefbeaa	-0.0018291075
146	0x3ceed2a2	0.029153172
147	0xbdba6b2a	-0.09102471
148	0xbcedd150	-0.029030472
149	0x3ce5c6da	0.028048921
150	0x3be07714	0.0068501327
151	0x3c8d220d	0.01722815
152	0xbc944c21	-0.018102707
153	0x3bdf5ba7	0.0068163457
154	0xbc9c232e	-0.019059744
155	0xbc1a7034	-0.009426165
156	0x3d1e4fab	0.038650196
157	0x3d434c74	0.047680333
158	0xbb461955	-0.0030227501
159	0x3cb79278	0.022408709
160	0xbc0e55fc	-0.008687492
161	0x3b8f66e8	0.004376281
162	0x3c18ac2c	0.009318393
163	0x3c81ac8d	0.015829349
164	0xbd10478d	-0.035224486
165	0xbd007acb	-0.031367105
166	0x39cf1195	0.00039495216
167	0xbdc797e2	-0.09745766
168	0x3c444a84	0.011980657
169	0x3bad9612	0.005297431
170	0x3b2f9f8e	0.0026797983
171	0x3a221cb5	0.0006184087
172	0xbc28dd1b	-0.010306622
173	0xbd441237	-0.047868934
174	0xbd5aa243	-0.0533774
175	0xbd0096d9	-0.03139386
176	0xbd050b75	-0.03248163
177	0x3cc89dcb	0.024489304
178	0xbc3b8460	-0.011445135
179	0xbc7b3b23	-0.0153339235
180	0x3cac8466	0.021059226
181	0x3c2a36c4	0.010389034
182	0x3cc34f59	0.023841547
183	0xbcebb788	-0.028774038
184	0xbc982ad5	-0.018575111
185	0xbd67e156	-0.05661138
186	0x3d19c3de	0.03754031
187	0xbc4b8e5d	-0.012424079
188	0xbcab7914	-0.020931758
189	0x3c3e87c6	0.011629051
190	0xbc3f010b	-0.0116579635
191	0xbc87f2c2	-0.016595248
192	0x3ccd0846	0.02502836
193	0xbdb31f8c	-0.087462515
194	0xbca67fe1	-0.02032465
195	0xbd5a5805	-0.0533066
196	0x3c355ff8	0.011070244
197	0x3ceb8ac1	0.028752686
198	0xbc453e0f	-0.012038722
199	0x3c9042c7	0.017609967
200	0x3b4dcac4	0.0031401375
201	0xbc0fa74e	-0.008767916
202	0xbd68262a	-0.05667702
203	0x3d23de39	0.04000685
204	0x3ce55d29	0.027998524
205	0xbcee85c2	-0.029116515
206	0x3bf5f2c5	0.007505747
207	0xbb6a75b3	-0.003577572
208	0x3c1849e2	0.009294959
209	0x3c38ba39	0.011274868
210	0xbcc70855	-0.024295965
211	0xbd64020f	-0.055666026
212	0x3d1daed5	0.03849681
213	0x3c0bddb8	0.008536749
214	0xbd0bf934	-0.034173205
215	0xbcaf1a59	-0.021374868
216	0xbb248910	-0.002510611
217	0xbbb8bd41	-0.005637795
218	0x3be79905	0.007067802
219	0xbd1d6a53	-0.038431477
220	0x3cd85178	0.026406035
221	0x3d084ef5	0.033278424
222	0x3c2e168b	0.010625492
223	0x3d3042a9	0.043032322
224	0xbd365494	-0.044514254
225	0xbc1b5400	-0.009480476
226	0xbc82b08c	-0.015953325
227	0x3c941563	0.018076604
228	0xbbe78ce2	-0.007066355
229	0xbd549c94	-0.051907137
230	0x3cd205b1	0.02563748
231	0xbd570320	-0.052493215
232	0xbcd5d43d	-0.02610218
233	0xbcbbdc73	-0.022932267
234	0x3bd7ed69	0.006589581
235	0x39d561a4	0.00040699274
236	0xbcc1d78d	-0.023662353
237	0xbd497140	-0.04918027
238	0xbcb954eb	-0.0226235
239	0xbd34da71	-0.044153634
240	0xbb83d58a	-0.0040232586
241	0x3c8b8eee	0.017035928
242	0x3bc8def0	0.006130092
243	0xbb020806	-0.0019841208
244	0x3b92da32	0.0044815773
245	0xbc5f8d3b	-0.013644512
246	0x3cc50532	0.024050329
247	0x3cb2286a	0.021747787
248	0xbd654b64	-0.0559801
249	0x3a002963	0.00048889796
250	0x3c58bc70	0.013228521
251	0xba7e6fde	-0.00097060006
252	0xba19c914	-0.000586645
253	0x3af51b10	0.0018700082
254	0xbce04b49	-0.027379649
255	0x3d4bb3ce	0.049732022
